preprocessing/2024-10-23-silan/imputation_models/curb_weight_model.pt (torch, 180177 bytes, 18 tensors)

input_norm.weight f4 [3]
00000000: 4ba3 513f ebca 633f 0ae1 723f
0.8188979 0.88981503 0.9487463

input_norm.bias f4 [3]
00000000: dd90 fa3d 719a 243e 5678 eb3d
0.12234662 0.1607454 0.11497562

input_norm.running_mean f4 [3]
00000000: f13b 413d 2d75 8f3d b9a7 323d
0.047176305 0.070047714 0.043616984

input_norm.running_var f4 [3]
00000000: 73da 0c3d f374 253d 74e3 ff3c
0.034388017 0.040394735 0.031236388

network.0.weight f4 [256, 3]
00000000: 82c9 19bf 2c1c 273f 6b60 163f 507f 82bf
00000010: fdf5 9abd d6ee c4be 1083 f63e 1261 a23e
00000020: 2466 9dbf f9ef eb3e 54c3 65bc fdd4 343e
00000030: 4de5 eebf 864e 6f3f 67cd f13e a26c 243f
00000040: 0c6a 84bf a976 403f cb6d 733c a60c c3bd
00000050: c612 fe3d 0dd3 b1bd 3da8 d03f 7c44 423e
00000060: c4b2 c2be 3c31 d53f b7f8 a13f 499e 69bf
00000070: 9b8e 6dbf dea2 e1bd 7418 ccbf 2123 9abe
00000080: 14bd 813f 814e 7e3f f07d 8fbf a46e 833f
00000090: ab2d 5b3f 9a89 67bc 9025 ddbe 2c19 203f
000000a0: ec3e 873f 13fe 91be dd92 44bd 3983 ae3e
000000b0: 46b7 3bbc d818 e5bd 47a6 9fbe 1eac 353f
000000c0: 69e8 7ebf dd65 f63e 4d75 a73e 56d7 03bf
000000d0: 0aa4 6d3f 56c7 5dbf 8453 26bf 715c d3be
000000e0: c0b5 ff3d a9f7 c9bd 9957 053f 8140 30bf
000000f0: d726 1dbf 557b f13d 73a6 003e eaa8 2cbf
00000100: 4578 b6be b09a b0be dd0e 9abd 8b43 17bf
00000110: ffd0 9f3e 92ca 253f 35e7 9a3e c3fe 90bf
00000120: d7d0 a13e d808 b13f 0d29 20bf 1d7e 92bf
00000130: 460c 0d3f 0cda 5b3f 35f5 053e 0fd0 f0bf
00000140: 4e92 643f f467 a63f 829f 183e 2297 b4bf
00000150: 7bd7 d7be 59e8 8fbe 3fed 62bf edfb 9bbf
00000160: 29cc 86be 00f3 72bd edae fabf fdf1 193f
00000170: 3b9f ffbe 73e8 e9be 7cb7 143f d6a7 d7be
00000180: 4509 c83f 87bb 223f a866 dd3d 15b3 013f
00000190: 3f14 863e a6e6 703d f4f9 d8be 1cfb 423f
000001a0: 8446 2abe 537c 61bf 2238 6bbe ad03 433f
000001b0: 77b2 463f 4e5f 003f b7ca 0bbf d9ff be3e
000001c0: d44d 223e e3c9 3abe 7c87 fabe ac8d 2ebf
000001d0: da14 813e dc43 733f 112a a03f d35b d6bf
000001e0: 8f99 d2be fcb2 e2bf 3003 ce3f 4797 2d3f
000001f0: dc4b d23e 1f94 2d3f 4c87 7ebf adec 0abf
00000200: 3ba0 ec3e d0be 61bf 7a5b 4c3f f38f 2d3f
00000210: 4e59 5d3f fabf 283f 2f92 febd 043f 443f
00000220: 5aa8 bc3c f4f6 273e 79f7 d63e 8def 14be
00000230: 7fdd c4be d302 fd3d 98aa 5c3e 1241 d13d
00000240: 654b 99bd 5ac6 233f e354 4dbf 623d 4cbf
00000250: 1d14 05bf 6b7f 56bf bea2 d93f c5bc 87be
00000260: 0403 b93e aa10 91bf 2f6d 5f3f c2a7 b63e
00000270: 7e61 f6bd b14b a33f 73f7 a1bf 54c1 183f
00000280: a06a 18bf 2a9e 92bf 4890 adbd c9ef e1be
00000290: 9f62 383f 8ab6 9b3e 9e75 d2be 8986 afbf
000002a0: 8a93 03be 3748 cb3f f83e cdbf a55b d1be
000002b0: d92b cb3e d548 96bf 1bb6 923d 2283 80bf
000002c0: 7d29 593f 670c 703e f20a b13f 6f01 0fbf
000002d0: d386 75bf 7b90 413f 5281 333e 9ade 30bf
000002e0: e5ef 26bf e456 bf3f 521f 223f 5fe2 bb3e
000002f0: 0078 0bbf 4ba7 7bbf 4d2a a1bf adcf 983f
00000300: 51f4 1c3d 0e53 bc3e fe20 3dbf e594 f43e
00000310: 1142 163d 8a34 a93f f794 6a3e 3f1c 0ebe
00000320: a791 2dbf 4686 543e ae3e e43f 7351 f0bd
00000330: 4ddd 8fbf f898 eebe ba94 80bc 19b3 403e
00000340: 9d6b 50bf 794b d3bd afec 9e3e b3d8 27be
00000350: dff9 c43d acaf 5e3f bab2 51be 6d53 ddbe
00000360: 3c6d 6c3e 61f1 0e3f fb5f b83e 3e7c d3bd
00000370: 5579 e93e 1684 b2bd 4d62 91bf a4fa af3e
00000380: 9b3d 64bc feca 3ebf 747e c03e 0d69 e4bd
00000390: b1c1 ae3e 1467 99bf 0811 ac3e 3e14 253e
000003a0: dd84 e6be e5bf 283e 499a 87bd db8e dcbe
000003b0: a374 cbbd 2448 893e a19b afbe cf54 5b3f
000003c0: 7925 853d 0a9e 853e 9b74 cfbe 2df7 4bbe
000003d0: a17f d13d 6bf7 0e3f e8b2 4b3e 7be8 333f
000003e0: 0430 8a3d 2285 a63e a4f1 02bf 1db0 083e
000003f0: 6ebd bbbe e4be a13f f1f7 79bf d710 ffbd
-0.600731 0.6527736 0.5874087 -1.0195103 -0.0756645 -0.38463467 0.48146868 0.31714684
-1.2296796 0.46081522 -0.014023621 0.17659374 -1.8663727 0.9347919 0.47227022 0.6422826
-1.0344863 0.7518106 0.01485772 -0.09523897 0.124059245 -0.08682833 1.6301342 0.18971437
-0.38027012 1.665565 1.2654027 -0.9125715 -0.92795724 -0.110173926 -1.5944963 -0.30104926
1.0135827 0.9933854 -1.1210308 1.026814 0.8561656 -0.014131928 -0.4319272 0.6253841
1.0566077 -0.28514156 -0.047991622 0.3408449 -0.01145727 -0.11186379 -0.31181547 0.70965755
-0.9957338 0.4812459 0.3270668 -0.5150045 0.9282843 -0.8663229 -0.64971185 -0.41281465
0.12485838 -0.098616906 0.5208679 -0.68848425 -0.6138739 0.11791102 0.12563495 -0.6744524
-0.35638633 -0.34493017 -0.07522366 -0.5908744 0.3121414 0.6476222 0.30254522 -1.1327747
0.31604645 1.3830824 -0.6256264 -1.1444737 0.5509685 0.8587959 0.1308182 -1.8813494
0.89285743 1.3000474 0.14904597 -1.4108622 -0.42156586 -0.28106955 -0.8864326 -1.2186257
-0.26327637 -0.059313774 -1.9584633 0.6013487 -0.4992617 -0.45685157 0.58092475 -0.42120236
1.5627829 0.63567394 0.10810596 0.5066388 0.26187322 0.058813713 -0.423782 0.7616441
-0.16628462 -0.8808033 -0.22970632 0.76177484 0.77616066 0.50145423 -0.54606193 0.3730457
0.15850002 -0.18241076 -0.4893149 -0.68184924 0.2521122 0.9502542 1.2512838 -1.6746773
-0.4113278 -1.7710872 1.6094723 0.67808956 0.410735 0.6780414 -0.99425197 -0.5426739
0.46215996 -0.8818178 0.7982708 0.67797774 0.86464393 0.65917933 -0.12430226 0.76658654
0.023029495 0.16402799 0.41985682 -0.14544506 -0.38450238 0.12354054 0.21549451 0.10217489
-0.074850835 0.63974535 -0.8020765 -0.7978116 -0.51983815 -0.83788174 1.700279 -0.26511207
0.36135113 -1.133321 0.87275976 0.35674864 -0.12030314 1.2757474 -1.265364 0.59669995
-0.59537697 -1.1454518 -0.08474785 -0.44128254 0.72025484 0.30412704 -0.4110536 -1.3712932
-0.1284925 1.5881413 -1.6034842 -0.40890232 0.3968189 -1.1740977 0.0716364 -1.0040019
0.8482893 0.23442231 1.3831465 -0.5586156 -0.9590885 0.75611085 0.175298 -0.69089663
-0.652098 1.4948392 0.6332904 0.36696145 -0.5447998 -0.98302144 -1.2591034 1.1938378
0.038318936 0.36782116 -0.7387847 0.47769848 0.0366841 1.3219159 0.22908388 -0.13877963
-0.6780037 0.20754346 1.7831628 -0.11734285 -1.1239411 -0.4660108 -0.015695918 0.1881832
-0.81414205 -0.1031713 0.3103995 -0.16391258 0.09617972 0.86986804 -0.20478335 -0.4322771
0.23088545 0.55837065 0.36010727 -0.10326432 0.45600381 -0.087166 -1.1358124 0.3437091
-0.0139307035 -0.7452849 0.37596476 -0.11152849 0.3413215 -1.1984582 0.33606744 0.16121003
-0.45023242 0.16479452 -0.066212244 -0.4307774 -0.09934356 0.2681285 -0.34298423 0.8567628
0.06501288 0.26097137 -0.4051865 -0.19918509 0.102294214 0.5584628 0.19892466 0.7027661
0.067474395 0.32523447 -0.51149964 0.13348432 -0.3666796 1.263638 -0.97643954 -0.12454384

network.0.bias f4 [256]
00000000: 1a92 da3e d894 813e 2454 5dbd 55bc a33e
00000010: bddd f13d f61e 03bf b6a6 5b3e 4bdc 1e3e
00000020: ea2c 433e 2fb4 693e 6f60 2dbe b13f 593e
00000030: 87df 7b3e 5ff1 b9be 88fe a73e b7fd 9a3e
00000040: 154b 58be 717c 843e a7af e8bd 8e06 203e
00000050: 3bd0 953e 06c4 0cbe 4c31 ac3d ecfc 873d
00000060: 9c06 963d 2d95 babd f56b d8bd 331f 053e
00000070: ba17 dcbd 7dfd 3e3d 1769 253e 8faa 663e
00000080: 120a 7d3e 2700 e0be 63af a13e 1193 34be
00000090: 40ec 0abe 6728 9b3e bd67 a5be 4a20 1bbe
000000a0: cab5 cd3d 234b f73e 2504 c5be c532 0ebe
000000b0: 0c49 893e 5399 2abe 1018 753e 387d a73e
000000c0: d52d 803e 7374 f8bd e5aa 3cbe ae0d 01bd
000000d0: fc23 563e f07d d43d 9e34 993e 02d6 d63d
000000e0: 8a94 92bd f60c bc3d 815d 3f3e 9a9c 123d
000000f0: 1cb4 a13e 30b1 6a3e ad86 a83e 1fae a8bd
00000100: a06a 783e 8f22 c83e 7d12 70be 3147 cd3c
00000110: 3069 82bb b49f 2c3e 48e3 983e 2486 4f3e
00000120: cc06 06bf c1fc ab3e 553b 76bd b293 853e
00000130: bd9a 42be 640a d93d fb9d 133e 2e1b 36bf
00000140: 9da6 7a3e d0b8 a53e 2e97 01bf 1aa5 833e
00000150: dea1 8d3e c2a4 8d3e 2320 bebe e7e4 233e
00000160: 9c1b 4d3e 7953 923e 42b1 66be 2fa7 c13d
00000170: 1198 c13e 51a7 82bd 6c4a dcbd 3ef0 0f3e
00000180: ee3e 64be e8ea 7e3e 9539 583d 7a7e 01bf
00000190: c66c 953d 43b6 a33e d1a2 64be 233b d8bd
000001a0: e567 8dbe 0603 5a3e 9624 243b 5831 293c
000001b0: dd87 a23e c79e 903e 4ddb ad3e c527 ad3e
000001c0: 32b1 c0bd 733a c53d 73d3 12bd 6455 24be
000001d0: 6099 aa3e d94f 263d 185b 6abe 007d a5be
000001e0: 279e b2be 12c2 c73e 11cf 05be 118d 96be
000001f0: 83c0 68bd 5a5e 843e 2e9e 993e b632 2b3e
00000200: b234 c83e f61e 22bd 1a79 8cbd 9f7f 4c3e
00000210: 6d65 c8be e89c 3d3e 0dd5 b5be 8acb 9e3c
00000220: cfed cb3e f41e 83bd ece9 16be a13f 80be
00000230: 98a8 8a3e e869 2c3e 786d 36bd b40c b23d
00000240: 5485 843d 68ed d43b 03f5 4dbe 1a85 a5be
00000250: 44df fa3d bf33 c23d 1110 91be 15b7 663e
00000260: 9808 acbe ef2d 80be 3213 0cbe 61b1 343e
00000270: c027 563e 1e9c 04be 8246 aabe f2f3 76be
00000280: 8b7c d03d 47f0 d1bd c231 1a3e 7e77 30be
00000290: da1e b0be 1f62 b43d e7cd a4bd 7a45 03bd
000002a0: 93a7 113e fa99 ebbe 44f3 c8be af88 093e
000002b0: d8dd a5bc beec 08be cfc6 5fbe e1f8 ba3e
000002c0: 7838 17be a8ac 823e c57a b13e ffb5 e6be
000002d0: 8906 96be 4e58 0bbf 0700 3ebf 4c73 9b3e
000002e0: 4dab eb3d 4f8a be3d 8a03 513e 18e2 323e
000002f0: 9a78 f7bd c8d4 8bbe 95dd e13e 028f c13e
00000300: 1c7b ae3e aabc 273d bc39 46be 7730 21be
00000310: 26f7 4f3e 3c91 0abd dabe d5bd 5cbc 68bd
00000320: 92cd 9f3d bf34 bebd 456b 6b3d d7de 9dbe
00000330: 9e1b 4ebe e700 e53d 8103 903e 8b9f 893e
00000340: 76e4 a6bd 4062 f1bc 3b1f 873e c171 993d
00000350: 8425 91be 5955 1fbf 182e 5b3e fbcc 8c3e
00000360: 21e2 193d 3ae7 a93e 91a0 0b3e 7290 a63e
00000370: f4ca 973e 4ccc 0cbe d1eb 5b3e 0386 833e
00000380: a387 833e c792 263e d412 99bd fff3 0bbd
00000390: 850c 88be db3d dfbe a12f a53e 919c d53e
000003a0: 400b 883c b7dd 75be 3e0f 463d 2d6d 9e3d
000003b0: e665 5bbd dec7 50be 6599 aa3d ee81 17be
000003c0: 29f5 663e d31a ac3e 67ba 633e 2525 83bd
000003d0: 9875 b2bd ea7d 8a3e c667 31be f0c5 1b3e
000003e0: cb3e d6be c8bf fb3c 0829 6e3e 5fb7 a6be
000003f0: 8710 88be 9002 01be 9db5 993e db69 a0be
0.42689592 0.2530887 -0.05403532 0.31979623 0.11809871 -0.5121912 0.21450314 0.15513723
0.19060102 0.22822641 -0.16931318 0.21215703 0.24596988 -0.36316964 0.3281138 0.30271694
-0.21122392 0.2587619 -0.11361628 0.156275 0.2926043 -0.13746652 0.0840784 0.06640038
0.073254794 -0.09110484 -0.10567466 0.13000183 -0.10746713 0.046628464 0.1615337 0.22526
0.24710873 -0.43750116 0.31579122 -0.17634226 -0.13566685 0.30304262 -0.3230571 -0.15149036
0.10044439 0.48299512 -0.38479725 -0.13886555 0.26813543 -0.16660051 0.2393496 0.32712722
0.25034967 -0.12131586 -0.18424566 -0.031507187 0.20912164 0.10375583 0.29922956 0.104900375
-0.07157238 0.091821596 0.18688013 0.03579388 0.31582725 0.22919154 0.3291525 -0.08236336
0.24259424 0.39088866 -0.23444553 0.02505836 -0.0039798245 0.16857797 0.29860902 0.20266014
-0.5235412 0.33591273 -0.060115177 0.26089245 -0.1900434 0.10597685 0.14415734 -0.7113522
0.2447762 0.32367563 -0.50621307 0.257119 0.27662557 0.27664763 -0.37133893 0.16005288
0.20030063 0.2857931 -0.22528556 0.09455716 0.3781133 -0.06379569 -0.10756382 0.14056489
-0.22289631 0.24894297 0.05278929 -0.5058361 0.072961375 0.31974992 -0.22327735 -0.105581544
-0.27618328 0.21290216 0.002504622 0.010326706 0.3174428 0.28246137 0.33956376 0.33819404
-0.09408797 0.09630289 -0.035846185 -0.16048199 0.3332014 0.040603492 -0.22886312 -0.3232193
-0.34886286 0.3901525 -0.13067271 -0.294045 -0.05682422 0.25853235 0.30003494 0.16718563
0.39102703 -0.039580308 -0.06859036 0.19970559 -0.39139882 0.18516886 -0.35514107 0.019384164
0.3982987 -0.06402388 -0.14737672 -0.25048545 0.27081752 0.16837275 -0.04453799 0.08693829
0.06470743 0.0064980276 -0.20112996 -0.3232811 0.12249616 0.09482526 -0.2833257 0.22530778
-0.33600307 -0.25035045 -0.13679197 0.1764579 0.20913601 -0.12950179 -0.33256918 -0.24116495
0.10180005 -0.102509074 0.15058044 -0.17233083 -0.34398538 0.088077776 -0.08047085 -0.03204868
0.1422408 -0.46015912 -0.39248097 0.13431047 -0.020247385 -0.1337156 -0.21853183 0.36518005
-0.14767635 0.2552235 0.34663978 -0.45060727 -0.2930186 -0.5443162 -0.7421879 0.30361402
0.115072824 0.09303724 0.20411506 0.1746906 -0.1208355 -0.27310777 0.44114366 0.3780442
0.340783 0.04095141 -0.19357961 -0.15741144 0.20309123 -0.033829913 -0.10436793 -0.05682026
0.07802881 -0.09287404 0.057475347 -0.30834076 -0.20127723 0.11181813 0.28127673 0.26879534
-0.08149044 -0.029465795 0.26391014 0.074924 -0.28348935 -0.62239605 0.21404302 0.27500138
0.03756917 0.33184224 0.1363547 0.32532078 0.29647028 -0.13749808 0.21476676 0.2568818
0.2568942 0.16266929 -0.07474294 -0.03416824 -0.26572052 -0.4360188 0.322629 0.41721013
0.016606927 -0.24010359 0.04835438 0.077356674 -0.053563975 -0.20388743 0.08330039 -0.14795658
0.22554459 0.33614215 0.22239076 -0.06403569 -0.087138355 0.2704919 -0.17324743 0.15212226
-0.41844782 0.030731097 0.2325784 -0.32561776 -0.2657511 -0.12598634 0.30021372 -0.3133076

network.1.weight f4 [256]
00000000: 83e9 463f 995c 173f 6aca b63f f634 4d3f
00000010: ceb3 823f 7215 c93f 9d18 703f 7d23 4b3f
00000020: 6eb3 383f efc8 0c3f 6703 ac3f 68d3 6d3f
00000030: 0c98 563f 41df 993f 33ce 4f3f 4059 533f
00000040: 5146 c23f 2428 4d3f aba3 873f 5744 553f
00000050: 0bb7 383f 93a7 743f cf78 673f 80e7 983f
00000060: 8322 813f c8a3 ba3f ab5c 953f 1ee6 8e3f
00000070: 3add 693f 796b 473f 5e77 283f 4dcf 613f
00000080: 5220 2d3f 6789 bf3f 7b03 193f 8096 eb3f
00000090: 0e9b 943f e431 233f 201f ed3f f59b b03f
000000a0: 18ff 9d3f 9f15 403f 90ed d43f 3d57 933f
000000b0: 55a3 4d3f 7c46 a43f 9eeb 443f a5e4 4c3f
000000c0: bdb9 5a3f dc2c 523f c3ce 973f 90a0 9f3f
000000d0: c68e 563f 3601 3c3f 6193 523f 0f89 2a3f
000000e0: 2f73 b63f 4d6d 493f feca 5f3f be66 953f
000000f0: f66f 783f 0894 823f a6ec 343f 8188 883f
00000100: 9bb4 353f 49f5 243f 171b d03f b301 493f
00000110: 90a9 3c3f 9919 333f acae 5f3f dfc5 593f
00000120: 896b be3f 5863 4a3f 3b46 933f 3699 4f3f
00000130: f9fc e23f 0ffa 613f 1180 2f3f e81d 0e40
00000140: d7b8 5d3f eef2 3b3f ef18 d23f 2104 3d3f
00000150: 437b 453f 0ef8 483f bc7f ac3f 57d1 9a3f
00000160: 0252 4c3f 4cdd 163f fc6e a23f 69db 463f
00000170: f999 203f c9ee 773f ef51 633f eacf 333f
00000180: 0fdf 7c3f 273d 7a3f d1f6 893f 7d07 9f3f
00000190: 7c11 793f bfe3 4a3f c8df 8e3f 4fe7 783f
000001a0: 5669 0940 fa32 0e3f 906d 8f3f b20a 5f3f
000001b0: 938b 3d3f b0f8 653f 32ec 4b3f 502e 3e3f
000001c0: d600 893f d052 123f 622c 783f f90c e33f
000001d0: c603 2b3f 51fe 9c3f 5de5 8d3f 8d4b 8a3f
000001e0: 9517 9e3f a61b 463f 61ec be3f da62 e03f
000001f0: 19d4 6a3f 6271 5b3f 3486 573f 7b19 523f
00000200: 3afb 1e3f 006a 643f ef73 603f 2aa8 503f
00000210: 15e1 ed3f f784 673f bb39 8f3f 3865 5b3f
00000220: b0d1 283f e5c1 753f 5962 ac3f 97ba a13f
00000230: 525a 273f b7d1 023f d302 943f 2ef1 863f
00000240: d21a 613f dd50 453f 7997 893f 774a 0340
00000250: ef5c 643f d43c 5f3f 8809 d33f a21c 903f
00000260: 4582 9b3f 9990 963f fbb0 883f b219 4c3f
00000270: 2ed7 5b3f 08a9 8f3f 81fc 0940 239f a43f
00000280: f9d2 463f c85f 9c3f 8d1e 6a3f ecfa d53f
00000290: 5579 0640 839c 873f 6d8d b23f c31f a13f
000002a0: d850 213f 52c7 2d40 d372 cb3f 4abb 303f
000002b0: f0e9 1f3f ac7d 893f 676e cf3f 99a9 453f
000002c0: e466 683f 3822 553f 8f59 4f3f b76a b83f
000002d0: 8cc0 a23f 4c20 fc3f 3805 0040 2a4c 0d3f
000002e0: 386b 583f 8246 603f f7e9 4e3f 82b1 5a3f
000002f0: 0aa7 923f 522a cb3f 1f9b 343f 4ed9 323f
00000300: 1c7b 4d3f bf41 2e3f f24d b03f 0e1a 6f3f
00000310: 4608 123f 73d0 363f ac07 563f f595 a63f
00000320: 6a34 833f fd25 813f 035a 953f fc44 3a40
00000330: df5a a33f 0a28 2c3f 3cd7 683f c399 693f
00000340: 7081 533f 078b 6d3f 550f 4b3f f482 4e3f
00000350: 1d5f 973f 935d df3f 24bb 3d3f 971c 4c3f
00000360: 5578 843f 35e7 3b3f 86e4 6f3f fec9 203f
00000370: a920 543f 3fe4 9a3f d39e 883f d81b 353f
00000380: 057e 233f 5684 4b3f ce34 b23f c44c b13f
00000390: 4a79 b53f ed7d c73f 6e8e 393f 0f11 3b3f
000003a0: 907b 503f 0b2c 8f3f b698 8a3f 557d 803f
000003b0: 64fc 973f e0cb 833f 793a 353f 172e 923f
000003c0: 45f2 453f ca1b 3d3f e51d 663f 26d0 813f
000003d0: 0679 a63f f64e 223f 515b cd3f 3ab5 5c3f
000003e0: 45d0 da3f d014 933f 68b3 2b3f a243 f53f
000003f0: 7422 9c3f 5811 913f 6de3 5a3f dc35 f93f
0.7770006 0.5912567 1.4280522 0.80158937 1.0211122 1.570967 0.93787557 0.79351026
0.7214879 0.549941 1.3438538 0.92900705 0.83825755 1.2021257 0.8117401 0.8255806
1.5177709 0.80139375 1.0596823 0.83307403 0.721543 0.955682 0.90418714 1.1945648
1.0088657 1.4581232 1.1668905 1.1163976 0.9135319 0.77898365 0.6580714 0.8820694
0.6762744 1.4963807 0.59770936 1.8405304 1.1609819 0.63748 1.8525124 1.3797594
1.2343473 0.7503299 1.6634998 1.1510998 0.8032735 1.283401 0.76922023 0.80036384
0.85439664 0.820997 1.1859974 1.2470875 0.83811605 0.7343935 0.8225613 0.66615385
1.4253901 0.78682405 0.87419116 1.167198 0.9704584 1.0201426 0.70673597 1.0666658
0.7097871 0.64436775 1.6258267 0.7851822 0.7369623 0.69960934 0.87375903 0.8506755
1.4876567 0.79057837 1.1505808 0.81093156 1.7733451 0.88272184 0.6855479 2.2205753
0.8661017 0.73417556 1.6413859 0.73834425 0.7714121 0.785035 1.3476481 1.2095135
0.79812634 0.5893142 1.269012 0.77678543 0.62734944 0.9684873 0.88796896 0.70239127
0.9877786 0.9774956 1.0778447 1.242416 0.97292304 0.7925376 1.1162043 0.9722795
2.1470542 0.55546534 1.1205311 0.87125695 0.740411 0.8983259 0.7965728 0.7428942
1.070338 0.5715761 0.9694272 1.7738334 0.6680263 1.2265111 1.1085621 1.0804306
1.2350947 0.7738594 1.4915887 1.7530167 0.91729885 0.85719883 0.8418915 0.8207013
0.6210209 0.89224243 0.876769 0.815066 1.8584315 0.90437263 1.1189493 0.8570132
0.6594496 0.95998985 1.3467513 1.2635068 0.6537219 0.5110125 1.1563362 1.0542352
0.8793155 0.7707651 1.0749351 2.05142 0.89204305 0.8720219 1.6487284 1.1258738
1.214913 1.1762878 1.067901 0.7972671 0.85875213 1.1223459 2.1560366 1.2861065
0.7766567 1.221673 0.91452867 1.67172 2.1011555 1.0594639 1.394941 1.2587818
0.6301398 2.7152905 1.5894417 0.6903578 0.62466335 1.0741477 1.6205567 0.7721191
0.90782 0.8325534 0.8099603 1.4407567 1.2715011 1.9697356 2.0003185 0.5519434
0.845386 0.87607586 0.8082575 0.85427105 1.1457226 1.587229 0.70549196 0.6986283
0.80265975 0.6806907 1.3773787 0.9339913 0.57043874 0.7141182 0.83605456 1.3014513
1.025037 1.0089718 1.1668094 2.9104605 1.2762107 0.67248595 0.9095342 0.91250247
0.8261938 0.92790264 0.7932027 0.8066857 1.1825901 1.7450432 0.7411368 0.79731125
1.0349222 0.7339967 0.93708074 0.62808216 0.82862335 1.2100905 1.0673469 0.7074561
0.63864166 0.79498804 1.3922365 1.3851552 1.417764 1.5585304 0.72482955 0.73072904
0.8143854 1.1185316 1.0827854 1.0038248 1.1873899 1.0296593 0.7079235 1.1420316
0.773228 0.7387053 0.89889365 1.0141647 1.3005683 0.63401735 1.6043493 0.8621403
1.7094809 1.1490726 0.6707063 1.9161265 1.2198014 1.1333418 0.85503274 1.9469562

network.1.bias f4 [256]
00000000: e661 0bbf dc62 10bf b568 44be e81d 9cbe
00000010: 4672 0dbf 30f6 00be b7d8 1dbe f7ff 0cbf
00000020: 978e 36bf 8889 31bf 9830 46bd 49d1 33bf
00000030: e643 4ebe 99c5 b4be 547e 52be 3e78 3ebe
00000040: beae c5bd e9ab e2be 7815 26be 9fb0 89be
00000050: bef6 e1be 815c babe 634f 36be 0c37 9bbe
00000060: 3a1c 17bf fd7d e4be 7a31 1cbd 3654 c6be
00000070: af6c a9be 093c bcbe 9014 c4be 21b3 c1be
00000080: 2ee6 10bf 1f41 81bd 5e0c 9cbe 12b9 ef3c
00000090: 8e19 46be 768a 94be 7405 a43d d16c 0dbf
000000a0: ba4b 56be c741 20bf 56c8 94bc dfc5 e5be
000000b0: 32d5 08bf 8962 71be 2f7c 96be 7aef 96be
000000c0: 8bc3 a5be 609a dabe 6931 cbbe dc0c 09bf
000000d0: 2793 a1be f550 dcbe d94a 34be f962 dabe
000000e0: 018e b6be 831d b9be 9dac 64be a36a 0fbf
000000f0: fdea aabe 79ee cdbe da6c d4be 2299 a3be
00000100: 77a5 a1be b164 17bf 9a95 203e 0249 e3be
00000110: f6e3 dcbe 44dc c9be 8868 44be 7164 75be
00000120: 9afd 7cbc 0e2d 1cbe 7db7 0ebe d4b3 eabe
00000130: 1d13 933d 12ea 49be 41ec 95be 535c bc3d
00000140: 394d 63be 28e9 93be fc84 ea3b 3c26 72be
00000150: 299b a4be 6acc a2be f397 19be 734a a4be
00000160: b931 a2be cf0c d7be fb5a ffbd 26fa 19bf
00000170: 2e7c b7be 3b36 b4be a40f d1be 893e a3be
00000180: 2888 9bbe 4245 2fbe 88b2 f7be b8ae 94be
00000190: cb37 95be ce1c 30be 9177 9bbe ddf6 debe
000001a0: 8190 bc3e 9dd2 fdbe 9bc6 9bbe ecb0 cdbe
000001b0: a6c8 29bf f247 4ebe 56b0 35bf 5986 b9be
000001c0: c2e9 23be 14de 1dbf e737 4dbe 5bfa 34be
000001d0: 9e0f 9bbe a4e4 62be 36f0 efbe 7ab5 c6be
000001e0: 2246 c0be 6e5c 15bf d566 90bd ad42 8d3c
000001f0: 837b 9dbe 0f2e d0be 82fb 0dbf 07af b0be
00000200: cbfe 82be f252 aebe a7a5 8ebe 7c0b 10bf
00000210: 6e01 253c 61f6 8cbe de17 82be 4b26 bfbe
00000220: 6af4 08bf 644c aebd 8614 323c c463 2fbe
00000230: cb0d 63be 8ed0 0cbf 66ba 123b 186e 2ebf
00000240: 7da1 e8be 2f8b 8abe 859b bbbe fc9f ac3e
00000250: 6447 82be bdd3 a3be 4f38 1d3e 4c8a 4fbe
00000260: d532 e9bd e3a0 26be 62ef 34be 87ea e5be
00000270: d4d1 8ebe 3a87 65be ad49 923e a3e9 06be
00000280: 1b34 d4be 5959 13bf ecaa 19bf 6a63 68bd
00000290: 06a6 813b c093 12bf e58c 4ebe c1b7 5bbe
000002a0: 0eab 0cbf 387d ee3d b50f 86bd a6ed a0be
000002b0: a365 10bf 2c6b 66be f419 9ebb e284 90be
000002c0: 2f6d a5be d828 94be 30fd 5bbe ffd5 02be
000002d0: 20c6 adbd 8a49 903e ba80 993d 64ba 0cbf
000002e0: 0be3 12bf 7419 b5be 1f34 a4be f3db 74be
000002f0: a8c8 66bd 126a 76bd 170f 1ebf eb73 04bf
00000300: 95aa 04bf a71d e7be 2b34 89be 11a0 8fbe
00000310: bde8 9bbe 8a79 d5be 3049 83be 38aa 99be
00000320: 3628 f8be f76e d0be 5607 dfbe d9b5 0c3e
00000330: 1de7 e2be 05af b8be f583 48be 1de2 3ebe
00000340: 8eb0 91be 4c44 a0be 8dbb c3be b62a bfbe
00000350: e7aa 41be dd9f 1fbd 29a6 09bf 4a32 47be
00000360: 3e8c 67be 9b1f 02bf b98f 12bf 2a02 8abe
00000370: c230 f0be 65a7 84be fc12 ccbe 602c eabe
00000380: e4ef 00bf 185a bbbe 8ed1 81be b764 8bbe
00000390: 4fbe aebd 3c66 0fbe cf6f 78be 6d5d efbe
000003a0: a827 97be 3e5b a4be 9608 99be e7ef 78be
000003b0: a2fb b4be 6cf2 f7bd 68d9 babe 70a2 80be
000003c0: c3e5 c5be dbbf aabe c317 75be 38dc 88be
000003d0: 7abc 9abd 57e9 62be e0c2 2d3d 8c1a 33bf
000003e0: 4061 d0bd b7b7 77be f143 66be bfa0 9f3d
000003f0: 1528 30be b0c3 61be c629 47be 8127 ca3d
-0.54446256 -0.5640085 -0.19180568 -0.30491567 -0.5525249 -0.12593913 -0.15414701 -0.5507807
-0.71311325 -0.6935048 -0.048386186 -0.7024122 -0.20143089 -0.35307005 -0.20556003 -0.18600556
-0.0965247 -0.44271782 -0.16219127 -0.26892564 -0.44133562 -0.363987 -0.17803721 -0.30315435
-0.59027445 -0.4462737 -0.038133122 -0.38736123 -0.33090732 -0.36764553 -0.38296938 -0.37831977
-0.56601226 -0.06311249 -0.30478185 0.029263053 -0.19345686 -0.29011887 0.080088526 -0.55244166
-0.20927325 -0.6260037 -0.018161934 -0.44877526 -0.5345031 -0.23572744 -0.2939162 -0.2947958
-0.3237575 -0.42695904 -0.39686134 -0.53535247 -0.3155758 -0.43030515 -0.17606677 -0.42653635
-0.35655215 -0.36155328 -0.22331472 -0.5602209 -0.33382407 -0.40221003 -0.41489297 -0.3195277
-0.31571552 -0.5913802 0.15682068 -0.44391638 -0.4314267 -0.39425862 -0.191805 -0.23964097
-0.015441323 -0.15251562 -0.13937183 -0.45840323 0.0718138 -0.19718197 -0.2928181 0.09197297
-0.22197427 -0.28888822 0.0071569663 -0.23647398 -0.32149628 -0.3179658 -0.1499937 -0.3208805
-0.3167856 -0.4200196 -0.12468525 -0.6014732 -0.3583693 -0.35197625 -0.40832245 -0.31883648
-0.30377316 -0.17116264 -0.48378396 -0.2903955 -0.2914413 -0.17198488 -0.3036466 -0.43547717
0.36828998 -0.49574748 -0.3042496 -0.40174043 -0.6632179 -0.20144632 -0.7097219 -0.36235312
-0.1600714 -0.6166699 -0.20040856 -0.17673628 -0.30285352 -0.22157532 -0.46862954 -0.3881033
-0.37553507 -0.5834416 -0.07050864 0.017243708 -0.30758294 -0.4066014 -0.55461895 -0.34508535
-0.25585017 -0.34047657 -0.27860758 -0.56267524 0.010071142 -0.27531722 -0.25408834 -0.37333903
-0.53497946 -0.08510664 0.010869151 -0.17127901 -0.2217323 -0.5500573 0.0022388934 -0.6813674
-0.45435706 -0.27059314 -0.3664209 0.33715808 -0.25445092 -0.3199748 0.15353511 -0.202676
-0.113866486 -0.16272311 -0.17669442 -0.44905493 -0.2789446 -0.22414866 0.28571835 -0.13175063
-0.41446003 -0.5755821 -0.6002643 -0.056735434 0.003956559 -0.572567 -0.20170934 -0.21456815
-0.5494851 0.11644977 -0.06545965 -0.3143131 -0.56405085 -0.2250182 -0.004824871 -0.28226382
-0.32309863 -0.2893741 -0.21483302 -0.12776946 -0.08485055 0.28181106 0.07495256 -0.5497191
-0.5737769 -0.35370982 -0.32071015 -0.23912029 -0.056343704 -0.06015975 -0.61741775 -0.51739377
-0.5182279 -0.4513981 -0.26797614 -0.28051808 -0.30451003 -0.4169429 -0.25641775 -0.3001268
-0.4846818 -0.4070966 -0.43560284 0.13741244 -0.4431695 -0.3607103 -0.19581588 -0.18640943
-0.28455013 -0.31302106 -0.38229027 -0.37337273 -0.1891285 -0.038970817 -0.53769165 -0.19452778
-0.22612092 -0.50829476 -0.57250553 -0.26954776 -0.469122 -0.25908962 -0.39858234 -0.4573698
-0.50366044 -0.36592174 -0.2535519 -0.27225277 -0.08532392 -0.14003843 -0.24261402 -0.46750966
-0.29522443 -0.32100862 -0.29889363 -0.24310265 -0.3534823 -0.12106785 -0.36493993 -0.2512393
-0.38651857 -0.333495 -0.23934846 -0.26730514 -0.0755548 -0.22159325 0.042422175 -0.6996238
-0.10174799 -0.24191175 -0.22486855 0.07794332 -0.1720279 -0.22047305 -0.19449529 0.09870816

network.4.weight f4 [128, 256]
00000000: 8d57 693d 0b13 3c3e 353d c53d fd25 e83d
00000010: 224b 4e3c 8989 0c3f f531 bebd 7bcc e8be
00000020: a2e0 a3be 0fcf c2bd 6c3e b33b 5a1e 86bd
00000030: d20a 0d3e 637b c5be 1afb 083e 1f96 b13d
00000040: cdaa 283e cfec 403d 6843 7cbc 6c5f b53c
00000050: 9fb8 943d a3dc 73bd 9dea 84bc 06a3 873d
00000060: fa92 bdbe 72ee a3bb 67e3 23be 0332 203e
00000070: 3208 cfbd 6717 913c ff91 d53d 08d2 b8bb
00000080: 9273 c4bb 73cb cbbd eb4f 0abe bb5b 733e
00000090: b485 8e3d 13cc 5f3d 7087 babd 3aa2 02be
000000a0: 62d7 bebd e42d f83c fba2 9ebd fba5 45bd
000000b0: 34b8 f93c 7147 333e ca92 1b3e 4b5c 1a3e
000000c0: 0725 d83b a315 b5bb 1e84 153e 2023 7fbe
000000d0: 7c9d ac3d 40b1 a7bd 08ac dbbc 3587 84bb
000000e0: 759a c5be 83f3 043d 6787 70bb a226 13bf
000000f0: eb97 8d3d 8459 ac3d e70b 4b3e 3e0c e5bb
00000100: bb44 5f3d 2ed0 f53d d13e b03e cfc1 20bf
00000110: ca3d c5bc 9528 5cbe 4520 1a3e 3be9 443e
00000120: fed0 04bf 9c1a 4a3c 075e a1bc 4418 733d
00000130: 20c4 b8bc df80 9f3d cdd5 f63c 1817 b4be
00000140: 2dc0 603e ce0d de3d b564 21bf ca40 0d3d
00000150: 3e8a e639 f19a a8bc a273 c7bd 22a3 123d
00000160: f842 9c3d 25b8 82bc b916 623e 9246 493d
00000170: 258a 373d 5441 95bd 5a71 00be 1ee6 2cbd
00000180: 6703 8bbe c0ba 3b3e 03bb 553d bf3f 3a3c
00000190: 2107 d53d a68f 013e e008 c9be c1c1 d5be
000001a0: e339 903d f131 7d3e 2751 773d 9b1a 4f3e
000001b0: 6ca0 4dbd 7974 fe3c c1fd a0bc d3dd 6c3d
000001c0: 7eee af3d df0f a9b7 7f8e be3d 8715 9a3c
000001d0: 7e40 ec3c 9f20 3bbd 7ef1 b33d 0f1f bdbd
000001e0: f359 e33d 3d41 043d 775e e0bd 9017 443e
000001f0: 4ee0 edbd 9f58 283e 4e51 86be 7a6b 3cbd
00000200: e94b a93d e843 2ebe 21c6 3dbe 52c3 c2be
00000210: ed1c 82be 08f2 acbd 37f2 2dbc 2d73 2dbd
00000220: 8170 003e 3c68 55bb 6dd1 ffbc d799 843d
00000230: 71d4 9a3d 6c42 213e 5c36 333e 02e2 06bf
00000240: d587 4dbd 26ca 09be eb84 aebd 2e36 bf3d
00000250: 59b3 d63d b2b9 cb3d dfd8 58be eaf4 833d
00000260: f717 583d 2d38 8bbd 4ba2 ebbc 95d5 853d
00000270: f96b b73d 23c9 22be 04ad 83bc 7757 83bd
00000280: f42f 12be e60d 14bf ecb2 e6be c796 1a3d
00000290: 7694 81bd cd85 3ebe 17be 163e b645 3dbe
000002a0: 42dd 57bd d622 513d 45ac a7be 69e2 2bbc
000002b0: f225 423d e7b5 61be 1d51 733e 2ec8 d83b
000002c0: 2c92 b5be 8928 833d 78a5 603d abd2 23be
000002d0: f1ba 043c 5011 52be 5f32 eabe 0262 663d
000002e0: e5d2 d23d 0637 63be c5d0 773d ce0b 533c
000002f0: c021 f6bd 3140 ebbd d7f4 6cbd db3d 9b3d
00000300: 315e 583d b94c cabe b5fa 843d fb79 81bd
00000310: 2a89 e93c edea a3be 5d27 e0bd c532 063d
00000320: 972c a4bd db05 22bf f029 99ba 4c7a 783e
00000330: c373 47be 8bec 0cbe d520 013c e0b5 393e
00000340: 805e 7abd 9cd1 99be 4a24 73be 1ae7 49be
00000350: aa0b 5bbe 7aa8 9e3d b68c 503d 148f 033d
00000360: 1c9c cdbc 8ef2 9a3d 6a8c 173d eb6e 6bbd
00000370: 4ed7 e13d d6c9 513e 10a6 70bd 1927 fc3d
00000380: 3377 823a 743f d2bd 6dfc 013e b8f6 f93c
00000390: 438c a4bd 4002 73bc 892b e73d 0931 6a3d
000003a0: 9af2 19be 25a3 06be 7ce4 6d3d 1e93 a8bd
000003b0: dd80 51be 5593 efbc b246 0c3d 7806 15bc
000003c0: 656f eebc 28c9 f83d e595 183c de65 69be
000003d0: 587e f0bd 6295 e5bd c07a c9bd 1986 1cbf
000003e0: 3177 223e 2e19 a13d a325 373b ea10 1abe
000003f0: 794f c9bd 97f0 543e 91db b13c 5bd8 4d3d
0.05696826 0.1836664 0.09630815 0.11335371 0.012591155 0.5489736 -0.09286872 -0.45468506
-0.3200732 -0.095121495 0.0054700878 -0.06548758 0.13773659 -0.385707 0.13377038 0.086712115
0.16471405 0.04710084 -0.01539693 0.022140227 0.07261776 -0.059536587 -0.016225154 0.06622891
-0.37026197 -0.00500279 -0.16004716 0.15644078 -0.10108985 0.017711354 0.10428237 -0.005640272
-0.0059952224 -0.09950914 -0.13507049 0.23765461 0.069590956 0.05463798 -0.09107864 -0.12757197
-0.09318425 0.03029532 -0.0774593 -0.048253994 0.030483343 0.17507721 0.15192714 0.1507427
0.006596211 -0.005526261 0.1460118 -0.24915743 0.08428475 -0.08188105 -0.02681543 -0.0040444382
-0.38594404 0.032458793 -0.00367018 -0.57480824 0.06913742 0.08415511 0.19828759 -0.006989985
0.054508906 0.12002598 0.34422925 -0.6279573 -0.024077315 -0.21499856 0.15051372 0.19229595
-0.51881397 0.012335446 -0.019698156 0.059349313 -0.022554457 0.07788252 0.030131245 -0.3517387
0.21948309 0.10842477 -0.6304429 0.034485616 0.00043972017 -0.020581694 -0.09738852 0.035800107
0.07629961 -0.015956948 0.2207898 0.049139567 0.04480948 -0.07287851 -0.1254324 -0.042211644
-0.27151033 0.18332958 0.0521803 0.011367737 0.1040175 0.12652454 -0.39264584 -0.41749385
0.07042291 0.24726082 0.060380127 0.20224993 -0.05020182 0.031061398 -0.01965225 0.057828736
0.08590411 -2.015376e-05 0.09304523 0.018809093 0.028839346 -0.045685407 0.08786295 -0.092344396
0.11101141 0.03228878 -0.10955518 0.19149613 -0.11615048 0.16440056 -0.26233906 -0.046000935
0.08266432 -0.17018092 -0.18532611 -0.38039643 -0.25412694 -0.08444601 -0.010616831 -0.04234617
0.12542917 -0.003256335 -0.031227792 0.06474655 0.07560051 0.15747994 0.17501205 -0.5268861
-0.050178368 -0.1345602 -0.08521446 0.09336506 0.104834266 0.09947528 -0.2117648 0.06443198
0.05275723 -0.06797824 -0.02876391 0.06534878 0.08956141 -0.1589704 -0.016073711 -0.06413167
-0.14276105 -0.5783371 -0.45058382 0.03774145 -0.06327145 -0.18605728 0.14720951 -0.18483624
-0.052701242 0.051058613 -0.3274862 -0.010490992 0.04739947 -0.22042046 0.23761411 0.00661566
-0.35463083 0.06404216 0.054845303 -0.15998332 0.008101211 -0.20514417 -0.45741555 0.05624581
0.10294131 -0.22188959 0.060501833 0.012881232 -0.12018156 -0.11486853 -0.057850685 0.07580157
0.052824203 -0.3951166 0.06493131 -0.06322094 0.028507788 -0.32015172 -0.10945008 0.03276326
-0.08016317 -0.63290185 -0.0011685472 0.24265403 -0.19477753 -0.13762109 0.007881363 0.18135786
-0.06112528 -0.30042732 -0.23744312 -0.19717064 -0.21391168 0.07746978 0.050915442 0.03211887
-0.025098853 0.07565795 0.036999144 -0.057478826 0.11027394 0.2048715 -0.05875212 0.12312145
0.0009953737 -0.10266009 0.12693949 0.030513152 -0.08034565 -0.014832079 0.112876005 0.05717567
-0.15033951 -0.13148172 0.058079228 -0.082311854 -0.20459314 -0.029245058 0.034247108 -0.009095781
-0.029105851 0.121477425 0.009313081 -0.22792765 -0.11742848 -0.11210133 -0.09837866 -0.61142117
0.1586578 0.07866131 0.0027946017 -0.15045515 -0.09829611 0.20794903 0.021711143 0.05025516

network.4.bias f4 [128]
00000000: 852f a8bc eefb 00bc ec1f 003e 1ef2 d0bd
00000010: 56fa 2fbd e477 a63d 0b0c e23b e56e 423d
00000020: eaf4 303e 653e db3d 3346 c83c 444d 093e
00000030: dd97 243e bd1e bc3d 22c2 053e 2cb8 093d
00000040: 07c1 af3d ce6e b93d dcd2 4f3e d094 713c
00000050: cb28 113e d141 10be 573f db3d 4f43 f93d
00000060: 0ca3 943d ed8e 623e e390 d83d 27f8 c53d
00000070: c9c1 febc 69ed 883d 80b6 683d ef17 233e
00000080: f7fe c0bd 3d6e 983c aab5 d5bc 5fdd 923d
00000090: 874c e3bd 0db3 f6bd c444 15be 5179 b43d
000000a0: 3527 953d a301 04be 504c 773d 73fd 52bd
000000b0: 82ce 083e 61f4 713e aa4a ffbd 528e 9cbc
000000c0: 4376 0a3e 81d8 193e d0b0 e83d c408 78bd
000000d0: bf76 153e 4eca fa3d dcaa 88bd 6213 8a3d
000000e0: 3c33 193e c3f6 66bc bc4a 5e3d 5092 1d3e
000000f0: 161f d6bd 6281 c03d ef59 c5bb 95e7 a6bc
00000100: 6534 31be 52d8 193e c61d f13d a5f1 de3b
00000110: b41f 1c3e 9696 0a3e 7429 3a3c 163c 1d3d
00000120: c536 41be c450 453d 06e1 07bc 5df5 df3c
00000130: e7a2 e5bc f91e bbbd 32c1 4f3d 3c90 c83d
00000140: e880 853d 35f6 cabd 4778 073e 1326 4e3d
00000150: e050 c0bc 0c7d b23d 73a8 92bc d502 163e
00000160: 2c4d 1c3d 6f88 f93d 9674 d33d 9b4e 323e
00000170: a910 a83d ca62 013e 6b18 eebd 8436 74bc
00000180: e875 bf3c 97d6 09be b9c3 3ebe cea5 753d
00000190: eda7 fd3b f318 313e 3b35 633d 118a 0d3e
000001a0: f039 0fbd ac54 89bd e18f 05bc 24cb 063d
000001b0: c065 a03d 46e5 613d 69a2 60bd 2363 3e3e
000001c0: 5f43 483d 356e 05be 74ab 053e 0d8a 153e
000001d0: 9e87 35be a385 1b3c 05c1 d6bd c5c8 2d3e
000001e0: e507 903d b42e 263e 0319 3a3e 3e41 8e3d
000001f0: c44f 123e 6d6d 0abe c801 b7bd 9a02 643d
-0.020530472 -0.007872565 0.12512177 -0.1020243 -0.04296335 0.08128336 0.0068984083 0.04746904
0.17280927 0.1070526 0.024447536 0.13408381 0.16073556 0.0918555 0.13062337 0.033622906
0.08581739 0.090543374 0.2029528 0.014744952 0.14175718 -0.14087607 0.107054405 0.12171041
0.07257661 0.22124834 0.1057451 0.09666472 -0.031098263 0.066859074 0.05681467 0.15927099
-0.09423631 0.018607253 -0.0260876 0.071711294 -0.11098581 -0.1204587 -0.14577013 0.08812202
0.07282869 -0.1289125 0.06037551 -0.05151124 0.13360026 0.2362838 -0.12465413 -0.019110832
0.13521676 0.15023996 0.11361849 -0.060555235 0.1459608 0.12245618 -0.06673214 0.06741978
0.1496095 -0.0140969185 0.05427049 0.15387845 -0.10455148 0.09399678 -0.006022684 -0.020374099
-0.17305143 0.15023926 0.11773257 0.0068037086 0.15246469 0.13534006 0.011362422 0.03838738
-0.18868549 0.048172727 -0.008293396 0.027338678 -0.02803178 -0.09136767 0.050721355 0.097931355
0.065187275 -0.099102415 0.13229476 0.05032928 -0.023476064 0.08715257 -0.017902588 0.14649518
0.038159534 0.12184226 0.103249714 0.17412798 0.08206303 0.12635341 -0.11625751 -0.014905576
0.023371652 -0.13460766 -0.1862935 0.059972577 0.0077409656 0.17294674 0.055470686 0.138222
-0.034967363 -0.06705603 -0.008151979 0.032908574 0.07831907 0.055150293 -0.054842386 0.18592505
0.048892375 -0.13030322 0.13053685 0.14603443 -0.17727515 0.009492311 -0.10486034 0.16971119
0.07032756 0.16228753 0.18173604 0.06946038 0.1428824 -0.13518305 -0.089358866 0.055666544

network.5.weight f4 [128]
00000000: 2f1b c13f a03e 9b3f 0e7b 273f 3183 de3f
00000010: c00b 9c3f 3e9b 3d3f 0e11 a03f 4a99 b73f
00000020: 21b2 1b3f e4cf 503f f31a b13f f8fb 363f
00000030: 54f3 4d3f e40c 723f d5bb 253f 6e51 c33f
00000040: d1c9 8f3f 6f49 4b3f 76bc 113f 6fdc a83f
00000050: 54cb 353f 918e c03f 5714 2d3f f199 0a3f
00000060: e652 883f 314e f13e bb1a 283f 638f 3b3f
00000070: a0d0 cb3f d40d 743f cb9e 5a3f 6a9a 3b3f
00000080: d797 cb3f 0043 9a3f 69d0 bc3f b162 9b3f
00000090: 400a d33f bfb4 ca3f fcf5 b73f 56b6 a03f
000000a0: 0d23 803f a956 fa3f 6b9a 343f 8787 b33f
000000b0: 2017 2f3f 70f6 013f eada da3f d44f a43f
000000c0: 29e4 1a3f d01b 573f 476e 613f 6748 cc3f
000000d0: 10f8 143f aed2 243f 578d 8f3f 8a4e 8c3f
000000e0: a348 183f 686b 9a3f 745a 803f bb0c 083f
000000f0: 330b da3f 4704 403f a7a5 943f 717d ca3f
00000100: 0e09 e03f d2cc 1d3f 5910 913f 2f0f 953f
00000110: 418d 203f b65a 1f3f 7037 aa3f db1a b03f
00000120: 2222 e43f ee6f 873f 4dec 9c3f 6e4a ae3f
00000130: 1cbd 913f 3b76 ac3f 55d6 c03f 7044 843f
00000140: 3fb1 ae3f 1c09 f63f 9148 823f 2a60 933f
00000150: fe51 d83f 0c93 323f e3aa da3f 1e76 273f
00000160: 9553 a33f 9e64 a13f 43aa 543f 3107 2f3f
00000170: 079e 913f f00a 2b3f 7add c03f a028 c83f
00000180: 5d9c 8f3f f7dc f63f 2ae1 0b40 8ba0 8a3f
00000190: 74c8 a03f 2309 113f a4b5 863f b45f 103f
000001a0: a6b5 ea3f a2e7 e03f 7720 a33f 255b d43f
000001b0: 8104 5a3f 2d54 9b3f 32fc b83f f7de 283f
000001c0: 2f7f 983f 923d df3f dd9c 0f3f 7b34 333f
000001d0: 4c0a e03f 53e8 a33f c3c7 af3f 28a2 3a3f
000001e0: 3230 ac3f fc04 213f 497a 293f 2ca5 963f
000001f0: c787 383f 5fc4 c63f 9a5f e23f ee6d ce3f
1.5086421 1.2128487 0.6542214 1.7383786 1.2191086 0.74065006 1.2505205 1.4343655
0.6081868 0.81567216 1.3836349 0.71478224 0.80449414 0.9455092 0.64739734 1.5259225
1.1233464 0.79408926 0.56928194 1.3192271 0.7101338 1.5043508 0.6760916 0.54141146
1.0650299 0.47129968 0.6566579 0.73265666 1.5923042 0.953336 0.8539855 0.7328249
1.5905713 1.2051697 1.4751102 1.2139493 1.6487503 1.5836409 1.4371943 1.2555645
1.0010697 1.9557697 0.70548123 1.4025735 0.6839466 0.5076666 1.7098057 1.2836862
0.60504395 0.84026814 0.88058895 1.5959595 0.58191013 0.6438397 1.1215008 1.0961468
0.59485835 1.2064028 1.0027604 0.53144425 1.7034668 0.75006527 1.1613053 1.5819532
1.7502763 0.61640656 1.1333114 1.1645259 0.62715536 0.6224779 1.3298168 1.3758196
1.7822917 1.0581033 1.2259613 1.3616464 1.1385837 1.3473581 1.5065409 1.0333385
1.3647841 1.922153 1.0178396 1.1513722 1.6900022 0.69755626 1.70834 0.6541461
1.2759882 1.2608831 0.830723 0.6837035 1.1376351 0.66813564 1.5067589 1.5637398
1.1219593 1.9286183 2.185618 1.0830244 1.2561173 0.56654567 1.0524182 0.5639603
1.8336685 1.7570689 1.2744282 1.6590315 0.8516312 1.2135063 1.4451964 0.6596522
1.1913813 1.7440665 0.5609873 0.70001954 1.7503142 1.2805275 1.3732837 0.7290368
1.3452208 0.6289823 0.6620222 1.1769156 0.7208218 1.5528678 1.7685425 1.6127298

network.5.bias f4 [128]
00000000: 76cd b0be 3828 ecbe 4de1 8dbe 3947 05bf
00000010: aa42 0bbf a392 9ebe dad1 bfbe 8aa3 b4be
00000020: fe90 88be fa41 65be d73c e7be 01ba 8bbe
00000030: 7b31 d6be aaf9 c8be 8c07 8cbe 5229 a4be
00000040: 49d3 95be 6be1 7dbe 497f cabe 97fd bfbe
00000050: 70b0 b9be fbb3 d2be b4d0 98be 691d 88be
00000060: f96f 68be 3afe b9be 22e1 aebe fb1d b0be
00000070: 6f53 a9be a232 a1be bc9a 8fbe f4a3 54be
00000080: 7f18 39be 3c63 a2be a3a5 a0be 5949 dbbe
00000090: 8ad9 d3be efc6 aebe 9e19 dabe 7946 c0be
000000a0: 7ab2 b1be 4889 03bf 94b7 8bbe 5206 c4be
000000b0: d5d8 82be 37a7 c4be 81fa b6be f7a5 afbe
000000c0: 3263 7ebe adf7 bdbe e58c 8cbe 7dc8 e9be
000000d0: 5a2c 84be 689e b1be dbc0 bbbe 0906 a0be
000000e0: 0a05 90be 8bc8 b0be fd33 80be cbbf 9dbe
000000f0: 5a28 8abe 981f ccbe 3d99 a3be d68f 43be
00000100: bb01 f9be 7ed6 33be f1b3 15be 4aba cfbe
00000110: bb12 9fbe 479d 72be 847f c5be 1078 85be
00000120: 5e99 05bf df6b 8bbe 89f7 b1be 91e3 e9be
00000130: c3ad 88be d93a cbbe e7d3 c6be 4bc4 dabe
00000140: 1b67 9cbe e149 86be d9be e7be 61c1 dcbe
00000150: de27 10bf 9302 9abe 63a4 33be 392d 87be
00000160: daad bdbe 02d3 8ebe a1a2 aabe 1213 a5be
00000170: b26d 90be 1434 a7be 58e1 22bf fda0 f3be
00000180: 5f9b fbbe 1359 9fbe a106 c2be 95de cfbe
00000190: b706 b2be a95e 99be f541 9abe e99a a5be
000001a0: 9a85 eebd b990 bdbe 076c dfbe 2370 83be
000001b0: 9c33 91be 8e88 0abf 8584 70be 5314 b6be
000001c0: 8227 8abe e74f c5be 7cb2 a9be 277f d1be
000001d0: 0ae3 d0be 2cce a1be f8d4 eebe 5424 a1be
000001e0: 0f9f a2be 82d3 c4be e452 b6be 40fc e9be
000001f0: a66d e1be abd2 05bf 9e7c f3be 18db 9dbe
-0.34531754 -0.46124434 -0.27710953 -0.520618 -0.54398596 -0.3097125 -0.37464792 -0.3528102
-0.2667312 -0.2238845 -0.45163605 -0.27290347 -0.41834626 -0.3925298 -0.27349508 -0.32062775
-0.2926276 -0.24793021 -0.39550236 -0.3749816 -0.36267424 -0.4115294 -0.29846728 -0.26584938
-0.22698964 -0.36326772 -0.34156138 -0.34397873 -0.33071467 -0.31483942 -0.2804774 -0.20765668
-0.18075751 -0.31716335 -0.3137637 -0.42829397 -0.41376907 -0.3413615 -0.4259767 -0.37553766
-0.3470648 -0.5138135 -0.27288496 -0.38286072 -0.25556055 -0.38408825 -0.35737994 -0.3430631
-0.24842528 -0.37103024 -0.27451244 -0.45660773 -0.25815088 -0.34691167 -0.36670575 -0.31254604
-0.28128844 -0.34528002 -0.25039664 -0.3081039 -0.2698391 -0.39867854 -0.3195285 -0.19097838
-0.48634133 -0.17562291 -0.14619423 -0.40571815 -0.31068978 -0.23692809 -0.3857385 -0.26068163
-0.52187145 -0.27230737 -0.34759167 -0.45681432 -0.2669507 -0.39693335 -0.38833544 -0.42727885
-0.30547413 -0.2622824 -0.45262793 -0.43116286 -0.5631083 -0.3008009 -0.17543177 -0.2640169
-0.370467 -0.2789536 -0.333272 -0.32241112 -0.2820869 -0.3265692 -0.636251 -0.47583762
-0.49141976 -0.31122646 -0.37895682 -0.40599504 -0.34770748 -0.29955032 -0.30128446 -0.3234475
-0.11646576 -0.37024477 -0.43637106 -0.2567149 -0.28359687 -0.54114616 -0.23488052 -0.3556238
-0.26983267 -0.38537523 -0.33143985 -0.40917322 -0.40798217 -0.3160261 -0.46646857 -0.3147303
-0.31761977 -0.38442618 -0.35610116 -0.45700264 -0.44028968 -0.5227458 -0.47556013 -0.30831218

network.8.weight f4 [64, 128]
00000000: b6f8 1b3e 8d76 8cbd e252 ed3d da6c e43d
00000010: 73c4 933e 01cc 0b3e bc5c 2abd 9af2 3bbe
00000020: c9c7 21be 1e87 69be 97a0 53be 4980 1d3e
00000030: 40a1 75be d27d 76be 7fff 42be 7799 003d
00000040: 5ac0 31be 981c 3bbe 2e15 d2be 80a0 41bf
00000050: c39b 203b 7bcd 863e f6fa 0c3e 5e23 2b3e
00000060: 5950 4c3c 8804 efbc f71d 483e b8cc 293e
00000070: 07c3 7d3e 2877 713e e04e c83d 164b d2be
00000080: ba0e 413e 3d1a 813c f1b0 1f3d 44b4 253e
00000090: 8083 00bf 3351 d4be 40ac 803e fc92 92bd
000000a0: 031b 7c3d 7e83 983d 96c4 15bc 6010 c53d
000000b0: 5d11 9b3c 082a ecbc 0eb3 233e 7b7b 4bbd
000000c0: 2d71 5a3d 171a 80be ac33 61be 9b54 22be
000000d0: 6a45 8bbd 74f4 43be 1ee5 bd3d c983 1d3e
000000e0: 9413 4ebd 9b19 ffbd e896 323e deba 883d
000000f0: 707d 80be 23ba af3e d4d2 5bbd 0ae4 1bbd
00000100: 9535 7a3e ef30 26be 13ca 18be fba0 283d
00000110: f11c 01be c44d 6c3d ecfd 773e 83de 0a3f
00000120: d353 a83e d4c7 13be fb5a 96bd dca1 8bbe
00000130: 244b dc3d 28c7 043e 4d22 87bd bf67 d8be
00000140: 13b9 a13e 9d6c b03e 4278 31bc 1c87 83be
00000150: 84d4 85bd f1b8 d2bd 2221 3fbe 8583 83bd
00000160: 8265 dc3e 1e38 10bd 9f6f 1d3e 6602 0739
00000170: 93c5 283e d735 8f3d d423 adbd 0709 893d
00000180: 43de 4c3e 3a02 9f3e 8466 08be 29d3 b3bd
00000190: a7c4 3b3e 21e8 0a3e 92e5 33bd 7ed4 273e
000001a0: e507 5bbe 3d48 913e 7838 c8bd aa34 33bb
000001b0: 9840 1bbd a54b 1e3e 1d8a 3fbc 573b 9abd
000001c0: 8bc1 81be 9712 113c 4242 9d3d 6da0 8ebd
000001d0: a88d c13e a7b3 143d 5898 61bd fa9f 203d
000001e0: 0032 9c3e 275d 9f3d 99ee 09be afba b6be
000001f0: b350 c63d 9be0 98bd 7cf3 2cbe fafd f3bd
00000200: d4c5 813d 90da 753e d295 533e c637 9ebd
00000210: 0c4e 0abb 39f1 86bb e096 903d 418f 0ebe
00000220: cde0 853e 2446 e13d 0a96 a2bd 13d1 4c3e
00000230: 9ccc 3cbd 8ef8 06bc 6bd2 223d ee4e dabb
00000240: 3aeb 1c3e e01b 413e eeeb c43a 3d83 8e3d
00000250: a54d 323d 0709 663e 19eb 8a3e 6c83 3e3d
00000260: cc21 3b3e 0c3d 893e bd44 883d 1aeb 853d
00000270: f7c2 153e f054 aabd b5f9 8e3d ed8f 393c
00000280: f292 6fbe 675f 01be cb35 953d 9820 c6bd
00000290: df34 623d 7b5b b73d fb0f 273e 0e62 efbd
000002a0: 2fb3 e03d 4090 cf3e fabd 943d 2c6d 813e
000002b0: 40b6 343e 1478 4a3e edc6 f43d f192 e83d
000002c0: 51c1 3e3e b00b 1f3e d533 d23d 5a68 afbd
000002d0: abab 763e 8147 9f3c e869 1b3e 2274 0f3d
000002e0: 4857 8ebe 01e1 563e ca91 513e 1e6f 1cbd
000002f0: e8fb 9cbe 1e35 2cbd 51bb 7c3e d6a1 19bd
00000300: f01e 9c3c 815f 1e3e 4093 d43d 5843 663e
00000310: 8236 073e 58a1 2e3d e1aa 253e 5e09 1bbd
00000320: d866 983e b6bf c63c 1884 163d a6f0 043e
00000330: cc1e 2fbe 3092 a03e f7d9 46be 824b a63c
00000340: ab62 103e b16b ae3c d054 96bd 06a2 7f3d
00000350: 6c4f 26bd 4cd6 1e3e 66cd 4bbb fd6b b2bd
00000360: 0dfb d13b 1306 963d 814d c73d ec9c 1c3e
00000370: 7ce7 f43d f6c1 0d3e 4820 893b f6b4 383e
00000380: c785 603e 2cc0 543e 6f9b 0f3e f204 8ebd
00000390: a273 19bd 3056 4bbd 0ea6 c3bc 8e11 353e
000003a0: b11c 893e 27ef 603e f896 d1bd 5c00 bf3c
000003b0: aa72 ac3d ef09 06be ed7a 42bb 31f3 bd3b
000003c0: ea0a 2a3c 08a0 793d 1b61 9d3e 0d22 d5bc
000003d0: b307 f63e 4530 1e3e 7b69 903e 1607 df3c
000003e0: 1ae1 6a3e 4784 953d a910 973c 755f 923e
000003f0: d4c2 373e f980 cc3d e288 023e 1eea 9e3d
0.15231594 -0.06858549 0.11588074 0.11153574 0.28860816 0.1365204 -0.041592345 -0.18354264
-0.15798868 -0.2280545 -0.20666729 0.15380968 -0.23987293 -0.24071434 -0.19042777 0.031396355
-0.17358533 -0.18272626 -0.41031784 -0.7563553 0.0024506904 0.26328644 0.13767609 0.1671271
0.012470328 -0.029176965 0.1954268 0.16582 0.24781428 0.23580611 0.09780669 -0.4107291
0.18853274 0.015759582 0.038987104 0.16182047 -0.50200653 -0.414682 0.25131416 -0.07156941
0.061549198 0.07446955 -0.009141108 0.09622264 0.018929178 -0.028828636 0.15986273 -0.049678307
0.05333059 -0.25019905 -0.21992368 -0.15852587 -0.06800349 -0.1913622 0.09272216 0.15382303
-0.05031164 -0.12456056 0.17440379 0.06676267 -0.250957 0.343217 -0.05366786 -0.038059272
0.24434502 -0.16229604 -0.14920835 0.041169148 -0.12608697 0.05769135 0.24217957 0.54245776
0.32876453 -0.14431697 -0.07341572 -0.27271926 0.107565194 0.12966597 -0.06598339 -0.42266652
0.31586513 0.34457865 -0.010831894 -0.25689018 -0.06534675 -0.10289181 -0.18664983 -0.0642157
0.43046194 -0.035209768 0.15374611 0.00012875497 0.16481619 0.06992691 -0.08454099 0.06691175
0.20006661 0.31056386 -0.13320357 -0.0878051 0.18336736 0.13565113 -0.043920107 0.16389653
-0.2138973 0.28375426 -0.097763956 -0.0027344623 -0.0379034 0.15458544 -0.011690644 -0.075308494
-0.25342974 0.00885453 0.07678653 -0.069641925 0.37803388 0.036304142 -0.055076927 0.039215066
0.30506897 0.07781439 -0.13469924 -0.35689303 0.09683361 -0.07464715 -0.16889757 -0.119136766
0.06336561 0.24009156 0.2066262 -0.07725482 -0.0021103648 -0.0041181115 0.07060027 -0.13921835
0.26148072 0.109997064 -0.07938774 0.2000163 -0.04609357 -0.008237971 0.03975145 -0.006662241
0.15324107 0.1885829 0.0015023926 0.069586255 0.04353108 0.22464381 0.2713249 0.046512052
0.18274611 0.26804388 0.06653736 0.06538983 0.14625154 -0.08316982 0.069812216 0.0113258185
-0.23395899 -0.1263405 0.07285651 -0.096741855 0.055226203 0.089529954 0.1631469 -0.11688624
0.109716766 0.40539742 0.07262798 0.25278604 0.17647648 0.19772369 0.119520046 0.11356152
0.18628432 0.15531802 0.102637924 -0.08564825 0.24088924 0.019443275 0.15177119 0.035022862
-0.27800965 0.2098427 0.2046577 -0.038191907 -0.3066094 -0.042042844 0.2468083 -0.037507854
0.01905772 0.1546612 0.10379648 0.22486627 0.13204387 0.04263434 0.16178466 -0.03785073
0.29765964 0.024261337 0.03674707 0.12982425 -0.17101592 0.31361532 -0.19419084 0.020299677
0.14100139 0.021291586 -0.073403955 0.062410377 -0.040603086 0.15511435 -0.0031097769 -0.087120034
0.0064081014 0.07325377 0.097315796 0.15294236 0.11958215 0.13843521 0.0041847564 0.18037781
0.21926032 0.20776433 0.14024137 -0.06934537 -0.03746379 -0.04964274 -0.023882892 0.17682478
0.26779702 0.2196623 -0.10233873 0.023315601 0.08420308 -0.13089727 -0.002967532 0.005796813
0.010378579 0.060943633 0.30738148 -0.026017213 0.4805275 0.15448101 0.28205475 0.027225059
0.22937432 0.073006205 0.018440561 0.28588453 0.17945415 0.09985537 0.12747529 0.07759498

network.8.bias f4 [64]
00000000: 36a6 2bbc 756d 2d3e ca64 c53b e6ec 03be
00000010: cd92 4b3e 7e52 4bbe 4c5b 943e fc07 f23c
00000020: 66f1 1cbe 702a b9bd e2db 54be d633 cc3d
00000030: b23e 3c3d 3bf1 d93d 9e5d be3d f6cb 983b
00000040: 03ef b43d 393d 1cbe 8d74 87bb 4cc8 babd
00000050: c0f3 913d 9f6b 973d a05b 19bc 383c 163e
00000060: 13ee b3bd e0e4 0d3e 3e7f 993e eb25 60be
00000070: dc28 90bd 55aa 733e 5333 92bd 5cec 7e3e
00000080: 91c1 4dbd e720 c0bd 4f75 893e bf46 c03d
00000090: 8d64 423d 1257 6f3e 21dc af3e 560f b33e
000000a0: 63f7 0fbb a226 463e 676e 7f3c 018f a33d
000000b0: b150 a33d 558a c73d eb35 023d 2c90 85bc
000000c0: 480f 833d 28d6 1fbc 4d7e 96b9 de53 fa3d
000000d0: e9f5 11be 7603 9ebd fce4 6dbc 387f 03bd
000000e0: 43bf 623d 625f 8b3e 0ad7 b03d 464a 9a3d
000000f0: 426f be3d 0fe9 38bd 7847 b13d aee9 ab3e
-0.0104766395 0.16936286 0.006023978 -0.12883338 0.19880219 -0.19855687 0.28975904 0.029544823
-0.15326461 -0.090412974 -0.20787004 0.099708244 0.04595823 0.10641714 0.092952 0.004662986
0.0883465 -0.1525773 -0.004133767 -0.09120235 0.0712657 0.07393574 -0.009360224 0.14671409
-0.087856434 0.1385684 0.2997989 -0.21889465 -0.07039043 0.23795445 -0.071386956 0.24894851
-0.050233427 -0.093812756 0.26847312 0.09388494 0.047459174 0.23373058 0.34347633 0.34972638
-0.0021967522 0.19350675 0.015590287 0.0798626 0.07974375 0.097431816 0.0317897 -0.016304098
0.06399399 -0.009755649 -0.0002870433 0.12223028 -0.14253964 -0.07715504 -0.014519926 -0.032103747
0.055358183 0.2722121 0.086347654 0.07533698 0.092985645 -0.045144137 0.0865621 0.3357672

network.9.weight f4 [64]
00000000: 1613 863f 1a65 383f 5428 7b3f cc90 e83f
00000010: e02a 3d3f 2df4 da3f 30f5 1e3f 256e 853f
00000020: 959a b83f cb98 b73f 1a1c ca3f b220 463f
00000030: 5bb3 663f 5e36 423f 220b 413f 3997 763f
00000040: 4766 903f ff29 bf3f 93c8 743f 10dd ba3f
00000050: ecb2 4f3f bec4 a73f 6164 863f 5aa1 453f
00000060: 1c89 c73f 3b52 3b3f f57d 283f 13d5 e13f
00000070: 3bb1 8b3f e3bd 1c3f 56b4 bd3f 920d 153f
00000080: dba2 b13f 0a1a 9a3f 30e9 273f f747 533f
00000090: 78fe 473f 6e94 263f 0203 0f3f fb9d ef3e
000000a0: 0d75 b63f 9d80 3e3f 2538 753f c4a2 833f
000000b0: 5b57 3f3f 025d 6c3f 5690 7c3f dcc7 9c3f
000000c0: 5951 5e3f 1554 a53f 355d 4b3f e192 423f
000000d0: 7f7e e63f db19 b43f 21d2 563f 053c ab3f
000000e0: 6c29 553f e36e 233f 2f5f a33f 18e1 473f
000000f0: 452f 4d3f 007b b03f 7c42 633f ad22 b93e
1.0474575 0.7202927 0.9810841 1.8169188 0.7389355 1.7105767 0.62092876 1.0424238
1.4422175 1.4343504 1.5789826 0.7739364 0.90117425 0.7586421 0.7540761 0.963245
1.1281213 1.4934691 0.9561855 1.4598713 0.8113239 1.3106916 1.0499383 0.7719933
1.5588717 0.7317235 0.65817195 1.764315 1.0913461 0.61227244 1.4820659 0.5822383
1.3877825 1.2039196 0.6559019 0.82531685 0.78122663 0.65070236 0.55863965 0.46800217
1.4254471 0.74415 0.95788795 1.0284047 0.7474267 0.9232942 0.9865774 1.2248492
0.86842877 1.2916285 0.794391 0.7600537 1.8007354 1.407039 0.8391438 1.3377692
0.8326633 0.63841075 1.2763423 0.7807784 0.8015025 1.3787537 0.8877332 0.36159268
