preprocessing/2024-10-23-silan/imputation_models/engine_cap_model.pt (torch, 180152 bytes, 18 tensors)

input_norm.weight f4 [3]
00000000: 4fdf 753f 0cc7 243f 4ee8 fa3e
0.96043867 0.6436622 0.4900536

input_norm.bias f4 [3]
00000000: 087b 103e 2fb2 0e3e 70ee 3f3d
0.14109433 0.13935159 0.04685825

input_norm.running_mean f4 [3]
00000000: fdd4 383d 9452 923d 7c29 8a3d
0.045124996 0.07144657 0.06746194

input_norm.running_var f4 [3]
00000000: af2f 053d 5895 273d 7475 833e
0.032516178 0.04091391 0.25675547

network.0.weight f4 [256, 3]
00000000: 2aaa 023f 5789 42be c660 8b3f 9c74 e43e
00000010: a149 94bf 7906 193e 3418 20bf 3c03 0c3f
00000020: d256 2bbf d7a1 97bf 0283 143f b41b 98bf
00000030: 885b 393e b0a6 a93e 67a8 143f 0e62 5bbf
00000040: c2e5 8c3e 71b7 da3d a550 903f 3bba 1d3e
00000050: 0d5e 0b3f bceb 15bf 2f23 d83e 28a2 273e
00000060: 57f0 e93e bb81 393f 81c7 77bf 2e5a 823f
00000070: 4cb4 5f3e 22e8 04bf 40d9 a03e c7d7 c83e
00000080: 578f 0bbf 9225 833f a2cb 213f 780e e6bf
00000090: 61d8 60be 69d6 f83b 01c3 6d3e 54a4 223f
000000a0: 2288 40be 6198 b53e 0d34 843f c61a 46be
000000b0: dff4 db3d 8487 e23e d441 ad3d 4f5e 91be
000000c0: 068e 3abf 6c38 8ebf bc9f 8fbe 613a 43be
000000d0: 11fc 6cbe 69e4 0dbe 49a7 0ac0 495c a5bd
000000e0: 3285 b63e f54c 8c3f 506e ccbf 6ed8 18bf
000000f0: c7f1 533f ac1d 733f 70c0 30bf 5655 303f
00000100: 9227 0fbf a318 093f 6a4b e8bf 7e89 993e
00000110: 7136 3e3f 968a a3be 8d05 5ebf 223f c2be
00000120: 136e da3e acec 0f3e 5839 14bf 1dc6 413e
00000130: 80b6 91bd f2d6 d73e 2f94 75bf 11d0 a1be
00000140: 6ee3 cf3e dbf3 3a3f 5961 183f f128 0a3f
00000150: b54b 693e 697e 343f 5b92 5dbf 3b35 a13e
00000160: 771a bc3d 6a71 fbbe 704f 1ebf 85e8 edbe
00000170: c3fa 543e fdad a2bd cb1f ca3e e12a 9ebe
00000180: ec2b 2fbf 3aa3 9fbf 925e 2440 21ab 8e3f
00000190: da40 83bf 1d0c 63bd ab1c d8bd ad12 5e3e
000001a0: 8309 bbbe 7756 363f 9d2e 6fbf abe3 b2be
000001b0: 24fe d8bf bbdb 573d 29e8 d83e 92b9 8b3c
000001c0: 7146 50bf 7137 35bf 7246 19bf 6623 12bf
000001d0: 940e 0ebf f3bb a33c 9119 e7bd a96e cb3e
000001e0: 3f97 bdbe 0000 b43e e3de fe3e d389 233f
000001f0: cf1d 233e a3a0 6b3f 4a57 57bf d2d0 223e
00000200: 23bd 293f 7d5e 9ebf 3621 f5bf 58be debe
00000210: 132a 2840 3377 82be 8e9e 91bf b7b8 5b3f
00000220: b1e2 543d e9d1 963f 1a0a 8b3e 4293 3e3f
00000230: 79d6 a43f 2561 85bc 8315 103e 20c3 af3f
00000240: fa83 0d3e b41a 73be 60cb ab3f 414a c33f
00000250: 15e4 3bbf 4838 54be 020b 1e3f 3b47 6f3f
00000260: 4010 f6be 1047 b73e 3333 b23b 8e2b ee3c
00000270: 8751 a13e 8a53 99bf 0660 f8bc 4a65 81bd
00000280: 2eee 413f 49f1 a5be 54e5 0440 6b17 ccbf
00000290: 40a5 af3e 8d3b d1be d370 72be e01a 3c3e
000002a0: a2b8 fe3e ece3 f5bf f20d 7b3e 2512 333d
000002b0: 780a 8bbe af12 bc3e d005 ca3e 1c3b 343f
000002c0: 363f 49bf 1780 373f 3f78 fabe fe2f 113e
000002d0: f124 15c0 32f4 62bf 24e2 c33f 278f d83e
000002e0: e85f 38bf 8756 1dbf e923 7d3f 1d11 bdbf
000002f0: 3c0d 033f 156a 943e 14d7 b3be 9a4c 543f
00000300: 9d23 1fbf bfcb 04be 8d83 0c3e 0024 76be
00000310: 3238 093f ad99 76bf 6cbc 65be 79d9 2dbd
00000320: 230c f2bd 5d7b 4dbf d090 d13e 8d3e 5cbe
00000330: b1cb a13e 389c 1dbf 5642 0a3f c22b 22bf
00000340: 50ed 883f ff7d df3e dece 02c0 9aea 313e
00000350: 5044 ecbd 1d34 e53f 6cbc 33bd 4145 b73e
00000360: a679 fcbe f490 36bf 44e2 d33f 5e8b 053f
00000370: 70cc bfbd adc9 653e 13f2 88be fdac 4bbe
00000380: 72d3 403f c6fc 1abf b99d 043d 26c3 533e
00000390: 78b2 053f 07fb 9bbe 900c 563f 7854 8cbc
000003a0: 90a4 8ebf 58f4 713f 72f5 d03f 267f 21bd
000003b0: 5889 523f 812e 323f aa59 21bf e342 293e
000003c0: 221c 6f3f f265 a83e fe5a a53d 0718 c23e
000003d0: 4a12 8e3d c370 27bf cbe7 65be 1076 803f
000003e0: 9a6d dabe af92 4bbe ea3d 08bf a91a b2be
000003f0: 2ed9 cf3e 9c26 ccbf 393b 313e 7557 cbbe
0.510409 -0.18997703 1.0888908 0.44620216 -1.158497 0.14943875 -0.6253693 0.54692435
-0.6692935 -1.1846265 0.580124 -1.1883454 0.18101323 0.33134985 0.5806946 -0.85696495
0.2751904 0.1067952 1.1274611 0.15403073 0.54440385 -0.5856283 0.42214343 0.16370451
0.45691177 0.7246358 -0.96788794 1.0183771 0.21846122 -0.51916707 0.3141575 0.39227125
-0.54515594 1.024584 0.63201344 -1.7973166 -0.21957542 0.007593919 0.2321892 0.63531995
-0.1880193 0.35467818 1.0328385 -0.19346151 0.10740065 0.44244015 0.08459821 -0.28392264
-0.7287296 -1.1110969 -0.28051555 -0.19065239 -0.2314303 -0.13856663 -2.1664603 -0.080742426
0.35648495 1.0960985 -1.5971165 -0.59705245 0.827908 0.9496715 -0.69043636 0.6888021
-0.55919755 0.5355322 -1.8148015 0.2998771 0.7430182 -0.3194167 -0.8672722 -0.37938792
0.42662105 0.14055127 -0.579 0.1892323 -0.07114887 0.42156178 -0.95929235 -0.31604055
0.40603203 0.73028344 0.5952354 0.5396872 0.22782786 0.70505387 -0.86551446 0.31485924
0.09184735 -0.49109966 -0.6183996 -0.4646646 0.20798783 -0.07943342 0.3947738 -0.3089209
-0.68426394 -1.2471688 2.568272 1.1145974 -1.0254166 -0.055431474 -0.10552343 0.21686812
-0.36530694 0.71225685 -0.934305 -0.34939322 -1.6952558 0.052699786 0.42364624 0.01705626
-0.81357485 -0.7078772 -0.59873116 -0.57085264 -0.55490994 0.019987082 -0.11284173 0.39732864
-0.37029454 0.3515625 0.49779424 0.6388218 0.1592934 0.9204199 -0.8411757 0.15899971
0.66304225 -1.2372586 -1.915076 -0.43504596 2.627568 -0.25481567 -1.1376512 0.8582873
0.051974002 1.178281 0.27156144 0.7444345 1.2877952 -0.016281674 0.14070706 1.3731422
0.13819876 -0.23740655 1.342144 1.5257035 -0.733949 -0.20724595 0.61735547 0.93468064
-0.48059273 0.35796404 0.0054382323 0.029073503 0.31507513 -1.1978619 -0.030319225 -0.063181475
0.7575406 -0.32410648 2.076497 -1.5944647 0.34305763 -0.40865746 -0.23675852 0.18369627
0.4975024 -1.9210181 0.24517038 0.043718476 -0.27156425 0.36733004 0.3945756 0.70402694
-0.7861208 0.71679825 -0.48919865 0.14178464 -2.3303797 -0.8865386 1.5303388 0.42296717
-0.7202134 -0.61460155 0.9888292 -1.4770848 0.5119207 0.28987184 -0.3512503 0.82929385
-0.62163717 -0.12968348 0.13722058 -0.2403717 0.5360137 -0.9632824 -0.22435158 -0.042443726
-0.11818721 -0.8026636 0.40930796 -0.21508236 0.31600717 -0.61566496 0.5400747 -0.6334802
1.0697422 0.43650815 -2.0438762 0.1737465 -0.11536467 1.7906529 -0.043880865 0.35795024
-0.4931156 -0.7131493 1.6553426 0.5216578 -0.09365165 0.22440214 -0.26747188 -0.19890209
0.7532264 -0.6054195 0.03237698 0.20679912 0.52225447 -0.30464956 0.8361292 -0.017130122
-1.114397 0.94513464 1.6324904 -0.0394279 0.8224082 0.6960221 -0.6302744 0.16529422
0.934023 0.32890278 0.08073996 0.37908956 0.06937082 -0.65406436 -0.22451703 1.003603
-0.42661744 -0.19880174 -0.53219473 -0.34785965 0.40595382 -1.5949283 0.17307748 -0.39715162

network.0.bias f4 [256]
00000000: 5712 e2bd 1332 87be 3e4e 87be 7fa3 063e
00000010: 2903 1cbf db83 8ebe 97a9 9cbe e0f3 92be
00000020: 44da 9a3e f167 0c3e 7d13 943e a89c 113e
00000030: a98b 7abe 915a 3abe 7d1c a13e 48b7 893e
00000040: 4ce3 36bc b54c 853e e28a 9b3c d07e 293d
00000050: 8a84 c23e ea60 be3e f92a b13c 1b12 61be
00000060: 0682 873e cded 703e ed78 103e 94ce 843e
00000070: 71ac 5d3e 5a9f 823e 3d24 99be df1a 663e
00000080: 649a 0e3c fbc8 00be 6f6a 3abe 439d 243d
00000090: c700 773d bb91 09be f284 89be 30f8 5f3e
000000a0: e560 6a3e e364 dfbe b494 c63d f301 003e
000000b0: a9cc a9bb c1b2 60be 965d e9be 32e9 973e
000000c0: 473d 583e 9ab1 acbd cef8 adbe 3772 803e
000000d0: 6cd0 3dbe a0bc b53e 9a66 ae3d ce34 8abe
000000e0: deb0 0fbe f02e 54be 1cec 46be bb76 a63e
000000f0: b8b4 f7bc 3421 59bc 2333 4fbd b847 a13e
00000100: f659 a8be ef22 4f3e 3cf3 673e f832 a0be
00000110: 0f25 4d3e 4ae5 a43e fd9d f0bb dffc 58be
00000120: 23a8 d13c 31a4 b13e 665d ed3d 8ed6 98be
00000130: 2a71 a93e 1e30 0fbe d5df 77bd 0118 9e3e
00000140: 9601 9dbe 03b0 873e 4e97 bd3e afa5 9abe
00000150: e0a7 95bc 51b1 a0be d14e 8cbe c4f9 b03d
00000160: cb0a 93be 023a 893d f3db eebe 5978 86be
00000170: 95d0 b33e 532c 3b3c 3b66 c7bd d9f2 1dbe
00000180: 15e8 c63d 51e8 e33d 6501 e03e cb93 30be
00000190: a2f4 813e 345a 00bd 064b 663e 6cfe 7f3e
000001a0: e606 b0be bea1 25bf ff6f 1a3b 66ae e43d
000001b0: fe64 f73d 8c8c a03d f4be 9d3d b813 85be
000001c0: 65dd 863e 38bb 3fbc db67 893d 3792 d4be
000001d0: 0a6e f0bd 61c3 283d 0bb8 ac3d b644 2ebe
000001e0: 9b32 433e f886 43be dac6 513e b8fb 923e
000001f0: ea74 c63e 867b 2a3e 58aa b13e 178e 8f3e
00000200: 82af 1bbf 1802 4bbe cf42 583e 20ce 69be
00000210: 8e82 c23e 1dde 663e 4d82 983e bec2 9b3e
00000220: a0ef 86be e6c2 433e 69f6 09be 49f6 493e
00000230: 77e5 003e 082a 7d3e c4ec 013e 4c15 f93c
00000240: 8ce9 af3e 8f46 9b3e 9447 1fbe 7c7a 70bd
00000250: 46f8 a2be 21cf 93be 39c8 913c 8082 dabc
00000260: 1ce1 9bbe eb8b 74be eb19 55bd 0cf1 a43e
00000270: 9fc9 6cbe b513 3a3e a1fc 433e ce39 e3be
00000280: 7252 11be db17 16be 90ff 223e ce0f 47bf
00000290: 8cde 05bd 1cfb 41bd 081a a03d a5ab 96be
000002a0: 0da5 a63e 1316 f8bd e35c 5b3d e655 833e
000002b0: 17f2 8cbe 4eb6 1dbc 4806 3c3e 7f86 823d
000002c0: eabe c13e 1981 8fbe b887 47bf 8c5b 21bb
000002d0: f92d 7c3e 9a98 b9be 14af 3c3e 01ef 873e
000002e0: 2b7d d93d acd1 293e b20e 96be af23 b5bd
000002f0: c554 443c 561a 583e bd63 943e 7798 2d3e
00000300: c507 933e 2b85 95be 9eb9 753d a518 c4be
00000310: d1f0 d83d 4717 43bd 35ce f33d 147b 2c3d
00000320: c65e a4be b9c4 983d d4f7 193e f69c f13d
00000330: 823f 973e 2411 e5bd 6a4d 533e 259b 9dbe
00000340: b1fa 983e be66 683e 5fd2 933e bde7 a33c
00000350: 1727 ae3d 6794 03bf 6084 70be ae58 8ebe
00000360: d005 6a3e bc9d 66bd 45c0 5f3e d9c0 773e
00000370: 9d0e 803e 73cb c63e d2ea 053e ac99 7dbd
00000380: 1bd8 68be 3dda 31bf 231d 723e 972c 61bd
00000390: eb25 5bbe 71bc 5a3e bd4d 693e df86 cfbd
000003a0: 557a 6b3e ca09 5a3d 205c 50bc a349 8d3e
000003b0: fbf8 a7bd 1147 b03c afe4 e3bd 9f1b 693e
000003c0: 336c 913e efc1 8c3e ee4b 85be 5410 74be
000003d0: ff16 55be 62a3 7bbe 18b9 153e c5d0 8e3e
000003e0: bc5a a33e 122c 683e 48bd 983e 97ca 133e
000003f0: b1d2 003e 2f95 683e 048f cc3b 2163 5dbe
-0.11038654 -0.2640539 -0.26426882 0.13148306 -0.6094232 -0.27834973 -0.30598137 -0.28701687
0.30244648 0.13711525 0.28921118 0.14219916 -0.24467339 -0.18198611 0.31467047 0.26897645
-0.01116259 0.26035085 0.018987123 0.041380703 0.37991744 0.37183315 0.021626936 -0.21979563
0.26466388 0.23528214 0.1410863 0.25938857 0.21647812 0.255122 -0.2991046 0.22471188
0.008703802 -0.12576668 -0.18204664 0.04018904 0.060303476 -0.13434498 -0.26859242 0.2187202
0.22888525 -0.43631658 0.096963316 0.12500744 -0.005181868 -0.21943189 -0.45579213 0.296701
0.21117125 -0.08432312 -0.33978885 0.2508714 -0.18536538 0.35495472 0.085156634 -0.26993412
-0.14032313 -0.2072103 -0.19426006 0.3251246 -0.03023754 -0.013252545 -0.050585877 0.3150003
-0.32881135 0.2022817 0.2265138 -0.31288886 0.20033668 0.32206184 -0.0073430524 -0.21190213
0.02559287 0.3469558 0.1159008 -0.29851192 0.3309415 -0.13983199 -0.060516197 0.3087769
-0.30665272 0.26501474 0.370295 -0.30204532 -0.018268526 -0.31385282 -0.27403882 0.08641389
-0.28719172 0.06700517 -0.46652183 -0.26263693 0.35120073 0.011424142 -0.09736296 -0.1542467
0.09712235 0.11128295 0.43751064 -0.17243879 0.25381953 -0.031336024 0.22489557 0.24999398
-0.34380263 -0.64699924 0.002356529 0.11166076 0.120798096 0.07839307 0.07702437 -0.25991607
0.26340786 -0.011702351 0.06709262 -0.41517803 -0.11739738 0.041201953 0.08433541 -0.17018399
0.19062273 -0.19094455 0.20486012 0.2870767 0.38761073 0.16648683 0.34700274 0.28038093
-0.6081468 -0.19825017 0.21119235 -0.22832537 0.3799023 0.22545667 0.29786912 0.30422014
-0.26354694 0.19117317 -0.13472904 0.19722857 0.12587534 0.24723065 0.12687975 0.030405663
0.3435787 0.3032727 -0.15554649 -0.05871056 -0.31830043 -0.28868964 0.017795669 -0.026673555
-0.30445182 -0.238815 -0.05202667 0.32215154 -0.23123787 0.1817158 0.19139339 -0.4438004
-0.14191607 -0.14657538 0.15917802 -0.7775849 -0.03268294 -0.047358617 0.07817465 -0.2942783
0.325478 -0.12113585 0.05355538 0.25651473 -0.2752845 -0.009625984 0.18361771 0.06373309
0.37840968 -0.2802818 -0.77941465 -0.0024621217 0.24626912 -0.36249238 0.18426162 0.26549533
0.10619577 0.1658389 -0.29308087 -0.08844697 0.011983101 0.21103796 0.28982344 0.16952692
0.28716865 -0.29203162 0.05999147 -0.38300052 0.10592807 -0.04762962 0.11904565 0.042109564
-0.32103556 0.07459397 0.15035945 0.11797516 0.2954064 -0.1118491 0.20635 -0.30782428
0.29878762 0.22695443 0.28871438 0.020007962 0.085035495 -0.5139832 -0.23487997 -0.27802032
0.2285378 -0.05630277 0.21850689 0.2419466 0.2501115 0.38827094 0.13077858 -0.06191413
-0.22738688 -0.6947363 0.23643927 -0.054974165 -0.21401183 0.21360947 0.22783561 -0.101331465
0.22995885 0.05323199 -0.012717277 0.27595243 -0.08201786 0.021518262 -0.11127602 0.22764443
0.28402862 0.2749171 -0.26034492 -0.23834354 -0.20809554 -0.24574044 0.14621389 0.27893654
0.31905162 0.22673061 0.2983191 0.1443275 0.12580372 0.22713159 0.0062426347 -0.21619846

network.1.weight f4 [256]
00000000: b582 963f 50c7 ef3f d0c8 9d3f 3ac5 453f
00000010: 4725 d13f 5eda bc3f e39b 953f 27a9 9a3f
00000020: e14a 263f fd10 523f 58fe 6e3f 6013 6b3f
00000030: a8b9 983f 2eca ae3f b86b 3a3f b3d4 873f
00000040: 66f9 483f af2c 373f a6e3 893f d49d b63f
00000050: 9397 193f 8330 6c3f 43e1 813f 7eac 9f3f
00000060: 5e4d 713f 33c8 743f f208 583f 285d 4a3f
00000070: 4b25 393f 2f41 743f ac18 9f3f 06ea 573f
00000080: 9d19 5c3f d620 be3f f34d 973f ab38 9f3f
00000090: 14a0 823f a764 8c3f 7049 8d3f 94c8 4c3f
000000a0: 62d5 623f 6770 933f 9193 723f fca0 013f
000000b0: 9db1 953f 1adb 933f 79c2 963f 4d66 493f
000000c0: 665b 3f3f d07d 9f3f 45de a23f 3cc6 983f
000000d0: 6150 b33f 9f7d 3f3f 8ee4 923f d098 e33f
000000e0: 7419 c23f c8b6 823f f15a 9c3f 503a 803f
000000f0: 5361 403f a260 8e3f 0808 c73f d53a 5d3f
00000100: 4c3d e53f 2e04 493f 8403 383f 1a2f c03f
00000110: 9786 563f 80d9 2f3f 2dc6 933f 17a4 873f
00000120: abba 783f 7b55 5b3f 4f37 5c3f ee2e 1740
00000130: f001 3e3f a53e b93f 3d18 8d3f 316d 6b3f
00000140: 1e0a a03f 0d2c 5b3f e4f5 293f 1842 b43f
00000150: ae9c 923f e4b3 c33f fbd7 d83f ec43 8e3f
00000160: c436 8f3f 459a 663f 5ffe 943f 3d9b 8b3f
00000170: 2396 683f ab5e 6f3f 363c 7a3f 41e4 eb3f
00000180: 8fff 3f3f db13 593f 1bcb f03e 6a5e 8b3f
00000190: 5c82 5b3f c0e3 8c3f 5d65 473f d74a 8a3f
000001a0: 9c36 9e3f 7580 c13f f660 8e3f f4ff 4d3f
000001b0: 90a7 5a3f ae51 973f cb8c 3e3f aa33 9b3f
000001c0: 21c9 3c3f 5d98 5c3f 8412 4a3f ae76 c43f
000001d0: 1925 dd3f 0f7e 7b3f 5afc 403f f2d7 8a3f
000001e0: dd3c 583f 1f28 b83f c747 5e3f 0a87 6e3f
000001f0: 3b10 2a3f 9502 473f 2987 5e3f 18f1 2d3f
00000200: b66a eb3f 5675 a93f 316b 5f3f 1a7d 953f
00000210: 2944 613f 7061 5a3f a59c 423f a6f4 4d3f
00000220: 5616 a63f eef8 413f 1ab6 943f 6a0f 3c3f
00000230: 52ca 7a3f e5c3 713f ef1f 493f afe7 5c3f
00000240: 95fc 333f 7c52 503f 8c4b 783f 0b94 793f
00000250: 829a be3f 8e69 a23f 49cc 403f 02b2 763f
00000260: a1c3 a73f 07cd f03f 6a56 883f 8c7f 743f
00000270: 66ce 8e3f ed93 613f db1f 793f 845c 9e3f
00000280: ed05 9b3f c080 8f3f 0e43 383f e49a e43f
00000290: ac90 723f 574e b73f 0775 863f 2771 a73f
000002a0: e08b 683f 2197 913f b2e6 653f 64d5 823f
000002b0: 177d ba3f 9ae8 973f f30a 423f 885d 503f
000002c0: ac30 7b3f 3a2d bd3f 87da d13f 4f95 683f
000002d0: efdd 943f 4124 ce3f c451 463f 4350 5c3f
000002e0: 5cd6 383f a887 3a3f 2b0a a63f 0201 823f
000002f0: cdbc 623f afc3 533f fcff 373f 0ea5 7b3f
00000300: 3b0e 403f d8b5 633f 90fb 673f 1ace b23f
00000310: 9dde 243f 6be5 983f a334 713f 098f 723f
00000320: 1704 ac3f b719 5f3f cca6 733f e501 043f
00000330: 348e 6b3f 06e5 773f cd50 583f f482 903f
00000340: 6bd7 343f ce45 453f 8022 603f 1874 6d3f
00000350: e724 7b3f 5a7f c53f 2afb 863f 1f57 a13f
00000360: c506 613f a53f 793f ffa6 3c3f 009b 243f
00000370: e616 943f 97d5 343f 8ef5 133f 5c7b 8f3f
00000380: f9d3 963f ec6f c43f 8c07 3a3f 4487 873f
00000390: bbb1 ae3f c38c 483f 34ed 443f bd02 663f
000003a0: baaf 543f 79fe 7a3f 9a65 6a3f 51ae 593f
000003b0: 69f9 863f a485 563f 0437 7c3f d491 5e3f
000003c0: 7f49 603f 8cd6 683f 0355 ec3f bcb4 ab3f
000003d0: eb00 983f 9ea0 f83f a652 523f 6c60 533f
000003e0: e5ca 863f b5e5 523f abad 343f ac9f 713f
000003f0: 6a0a 243f 8ef4 4d3f 8396 533f 3568 973f
1.1758639 1.87327 1.2326908 0.7725407 1.6339501 1.475414 1.1688198 1.2082871
0.64958006 0.8205717 0.9335685 0.9182644 1.1931658 1.365545 0.72820616 1.0611786
0.7850555 0.71552557 1.0772598 1.4266915 0.5999691 0.92261523 1.014687 1.2474515
0.9425868 0.9561798 0.8438865 0.79048395 0.7232253 0.9541196 1.2429404 0.84341466
0.8597658 1.4853771 1.1820663 1.2439169 1.0205102 1.0968217 1.1038036 0.7999356
0.88606846 1.1518677 0.9475642 0.5063627 1.1694828 1.155124 1.1778098 0.78671724
0.7474884 1.246027 1.2724081 1.1935496 1.4008905 0.7480106 1.1475999 1.778101
1.5164018 1.021203 1.2215253 1.0017796 0.75148505 1.112324 1.5549326 0.86417896
1.7909331 0.78522 0.71880364 1.5014374 0.8379912 0.68691254 1.1544853 1.0596951
0.9715983 0.8567731 0.86021894 2.3622394 0.74221706 1.4472243 1.1023022 0.9196349
1.2503088 0.8561409 0.66390824 1.408267 1.1454065 1.5289273 1.6940912 1.1114478
1.1188588 0.90079147 1.1640128 1.090675 0.9085409 0.93503827 0.97748125 1.8429033
0.74999326 0.8479592 0.47029957 1.0888188 0.8574579 1.1007004 0.77889043 1.0804089
1.2360415 1.5117327 1.112334 0.8046868 0.8541193 1.1821802 0.74433583 1.2125142
0.737444 0.8616999 0.789345 1.5348718 1.7276946 0.98239225 0.7538506 1.0847151
0.8446787 1.4387244 0.86828274 0.93174803 0.66431016 0.77738315 0.8692499 0.67946005
1.839194 1.3238933 0.87272936 1.1678803 0.8799463 0.8530493 0.7602027 0.8045143
1.2975566 0.7577046 1.1618073 0.7346102 0.97964966 0.94439536 0.7856435 0.8629102
0.70307285 0.8137586 0.96990275 0.9749152 1.4890902 1.2688463 0.75311714 0.9636537
1.3106576 1.8812569 1.0651371 0.9550712 1.1156738 0.8811634 0.9731423 1.2371984
1.2111183 1.1211166 0.7197732 1.7859769 0.94752 1.4320782 1.0504464 1.3081406
0.9083843 1.1374246 0.8980514 1.0221372 1.4569424 1.1867859 0.7579796 0.8139272
0.9812114 1.4779427 1.6394814 0.90852827 1.1630229 1.6104814 0.77468514 0.8605997
0.72202086 0.72863245 1.2971853 1.0156558 0.8856934 0.82720464 0.71874976 0.9829873
0.75021714 0.88949347 0.9061823 1.3969147 0.6440218 1.1945013 0.9422094 0.94749504
1.3438748 0.8714861 0.95176387 0.5156539 0.9201386 0.9683384 0.8449829 1.1289964
0.706412 0.7705964 0.8755264 0.9275527 0.98103184 1.542949 1.0545399 1.2604712
0.87900954 0.9736274 0.73692316 0.6429901 1.1569488 0.7063841 0.5779656 1.1209521
1.1783439 1.5346656 0.72667766 1.0588155 1.3647989 0.78339785 0.76924443 0.8984793
0.8308064 0.98044544 0.9156128 0.8503161 1.0544864 0.8379767 0.9852145 0.86941266
0.87612146 0.9095237 1.8463444 1.3414531 1.187528 1.9424016 0.8215736 0.82569003
1.0530668 0.82381755 0.70577496 0.94384265 0.6407839 0.80451286 0.8265154 1.1828676

network.1.bias f4 [256]
00000000: 529c 6abd 42fa 973d 5c29 7cbc dff5 ddbe
00000010: e56d 603d d1a8 04bd 0dc9 25be 8945 6c3e
00000020: a57b bdbe 7cc7 9ebe 6af0 87be f1b0 c6be
00000030: d990 953e f397 02ba bfe1 97be 373d 86be
00000040: cc4c a7be 3260 c8be 69b0 bbbd 3e73 92be
00000050: 27e8 10bf 1d02 54be 4117 90be b5de 0cbe
00000060: 0e8c 8abe dffb 28be 7b6a 6bbe 0178 02bf
00000070: 20c9 97be 29c2 5cbe a60b 1cbd 2287 84be
00000080: 6d2f 06bf 92ce 52bd 3b16 073e 23d7 87be
00000090: 5f27 55be 00bc 35be 9639 1dbe d948 5fbe
000000a0: a534 5fbe 34ee 15be 8046 97be e632 d7be
000000b0: 9367 20be 6a97 24be 3eca 62be 061e dabe
000000c0: 420f a2be d1f8 8bbb b151 e6bd d211 80be
000000d0: adf0 dfbd 2ad8 7cbe b40d 8dbe 5375 db3d
000000e0: 4176 44be 78ab 823e f094 57bd 2762 45be
000000f0: 2e9d 67be 209c 3abe c0c4 64be c1e9 30be
00000100: c563 543d db3a b5be 6c93 bebe b0df 06bd
00000110: 0be0 61be cbe0 b0be bd44 e8bd 6aa4 8dbe
00000120: 71b4 b0be 0005 6abe 94eb 6fbe 1cdf f53d
00000130: 7301 93be 880c 30be 1c52 63be d277 36be
00000140: 0330 1abe 8176 6ebe f063 89be 67bf b63c
00000150: 11ee 85be 57b0 8b3d 1d44 223e ab06 dabe
00000160: f093 0abe 46ce 02bf f0d9 69be 48f0 a8bd
00000170: 758e 7fbe 4fef 6fbe 29cc c1be fac6 113e
00000180: ae34 e3be 0d62 f3be 7478 06bf fd83 eabd
00000190: 2e00 aebe 7e29 67be 5c75 97be f0a2 53be
000001a0: 2a6b 9dbd dc03 aabd 888c 99be c7f2 10be
000001b0: ab55 7cbe ac91 a1be 47c3 c6be 578e 98bd
000001c0: a4e2 b7be 5dc9 d9bd f7e6 0dbf 9ee2 cebd
000001d0: c002 3abd d681 57be db68 cfbe 18e1 b3bd
000001e0: 6404 99be c472 b1bd 7676 aabe 8539 8ebe
000001f0: 6571 9ebe b278 babe 6ae0 82be 14e6 10bf
00000200: 7537 bd3d a790 45bc 4a21 5fbe 2a95 85bc
00000210: 4323 63be 2b38 2fbe 335a 88be 4523 7cbe
00000220: 47de 8e3e 8583 a9be 10ff 1cbe 91c0 aabe
00000230: 8ff2 b8be 730f 30be 394e ecbe 51bd 14be
00000240: 5dd5 e0be 10ee 87be 8b58 f7bd 59bb b1be
00000250: b46b 2d3e d1b9 513e d560 c7be 1a25 a9be
00000260: 920f 0ebd db6e 1d3e d302 b5be 5cd7 4bbe
00000270: 92d3 893e 07a7 94be 0d12 80be bf71 00be
00000280: faae 1abd 44a9 a3bd 15a1 03bf e9e6 44bd
00000290: e40b 1dbf d700 5abe 3288 9abe e282 4cbc
000002a0: 10df 73be 8fe4 72be 8da8 a5be e12f 3ebe
000002b0: ced0 b9bd 6dc9 46be 1616 89be 8e91 04bf
000002c0: 8c1a 83be 4a5d ad3b 9f2e bbbd 4ace afbe
000002d0: e0cb 68be c42f 5b3e 55fe cebe 3091 54be
000002e0: db91 98be 7c9b 45be f342 ba3e d57f 61be
000002f0: 3392 a0be 8ba0 9abe 76bb afbe 033b 06bf
00000300: d846 f1be 2faf 94be c4dc 83be 6f98 88bd
00000310: 0303 1bbe e718 9abe 0fbd ddbe 7b67 cfbd
00000320: eb34 afbc ba7d a3be 3592 9cbe e92a 24bf
00000330: 9bae 84be b766 41be 0c13 99be a168 2cbe
00000340: 8942 abbe 48b0 c8be 6e2f 42be aac8 9cbe
00000350: f49a e6be 734a 1b3e 3d5c c5bd d522 01be
00000360: 647d 92be 57af 72be dbd7 84be 7920 88be
00000370: 2baa 55be 7ec8 77be aa48 34bf 4c43 bdbd
00000380: 1464 efbd 2842 dabd f4a1 d5be 3237 98be
00000390: c0a5 46bd dd80 91be 44dc ccbe 5438 4bbe
000003a0: ac57 a3be e19b 35be ca18 52be c23f 93be
000003b0: f3cb 9fbe a579 e0be a36d a8be c59f 92be
000003c0: c719 9cbe 1e1c 44be f015 093d 73c7 72bd
000003d0: cf5d 513d 757b 213e 4318 d3be 2b39 85be
000003e0: 1826 8dbe 26c8 52be e81d 0dbf 895f 5bbe
000003f0: 56b7 0ebf 35dd 6fbe 2d5d f4be 1946 8d3d
-0.057277985 0.0742078 -0.01539072 -0.43351647 0.054792304 -0.03238756 -0.16189976 0.230734
-0.37008396 -0.3101157 -0.2655061 -0.3880687 0.29212072 -0.00049817486 -0.29664418 -0.26218578
-0.3267578 -0.3913589 -0.09164507 -0.28603548 -0.56604236 -0.20703931 -0.2814274 -0.13756831
-0.27059978 -0.16502331 -0.22989838 -0.5096436 -0.29645634 -0.21558441 -0.038097046 -0.25884348
-0.52416116 -0.051466532 0.13192074 -0.26531324 -0.208158 -0.17747498 -0.15353999 -0.21805133
-0.21797426 -0.14641649 -0.29545975 -0.4203102 -0.1566451 -0.16073385 -0.22147462 -0.4260103
-0.31652266 -0.0042716046 -0.1124605 -0.25013596 -0.10934577 -0.24691835 -0.27549517 0.10715737
-0.19185735 0.25521445 -0.052632272 -0.19275723 -0.22618553 -0.1822362 -0.22340679 -0.1727667
0.05185296 -0.35396466 -0.3722185 -0.03292817 -0.22058122 -0.34546503 -0.11341236 -0.276645
-0.34512666 -0.2285347 -0.2342971 0.12005445 -0.28712043 -0.1719228 -0.22199291 -0.17819145
-0.15057378 -0.23287393 -0.2683406 0.022308065 -0.26158193 0.068207435 0.15846296 -0.42583212
-0.13532996 -0.51096 -0.22837043 -0.08248955 -0.24956687 -0.23431133 -0.37851074 0.1423606
-0.4437613 -0.47535744 -0.52527547 -0.11450956 -0.33984512 -0.22574422 -0.29581726 -0.20667624
-0.076864555 -0.08301517 -0.2999003 -0.14155112 -0.24642055 -0.3155645 -0.3882086 -0.07449024
-0.359151 -0.1063411 -0.5543055 -0.101018175 -0.04541278 -0.21045622 -0.40509686 -0.087831676
-0.29886162 -0.08664468 -0.33293504 -0.2777826 -0.30945888 -0.36420208 -0.2556184 -0.5660107
0.09239093 -0.012058414 -0.21790043 -0.016306479 -0.2218142 -0.1711127 -0.26631317 -0.2462283
0.2790396 -0.33108154 -0.15331674 -0.33350042 -0.36122558 -0.17193393 -0.4615343 -0.14525343
-0.43912783 -0.26548815 -0.12077435 -0.34713247 0.16935617 0.2048104 -0.38941064 -0.3303612
-0.034682818 0.1537432 -0.35353717 -0.19906372 0.26919228 -0.29033682 -0.25013772 -0.1254339
-0.037764527 -0.07991269 -0.51417667 -0.048071776 -0.6134627 -0.21289383 -0.30182034 -0.012482377
-0.2381556 -0.2372 -0.32355157 -0.18572952 -0.090730295 -0.19412775 -0.26774663 -0.517846
-0.2560619 0.005290662 -0.09139752 -0.34337074 -0.22734022 0.2140494 -0.40428415 -0.2075851
-0.2979878 -0.19297594 0.36379203 -0.2202142 -0.3136154 -0.3020061 -0.3432271 -0.52433795
-0.47124362 -0.29039904 -0.25754368 -0.066696994 -0.15137868 -0.30097124 -0.43308303 -0.10127159
-0.021387538 -0.3193186 -0.30580297 -0.64127976 -0.25914463 -0.18886839 -0.29897344 -0.16836788
-0.334492 -0.39196992 -0.18963405 -0.30621845 -0.45040095 0.15165119 -0.09636734 -0.12610944
-0.2861129 -0.236997 -0.25945935 -0.26587275 -0.20865695 -0.24197575 -0.70423377 -0.092413515
-0.1168901 -0.106571496 -0.41725123 -0.2972961 -0.048497915 -0.28418627 -0.400118 -0.19845706
-0.31902826 -0.17735244 -0.20517269 -0.2875958 -0.31210288 -0.43842807 -0.32896146 -0.2863752
-0.30488417 -0.19151351 0.033468187 -0.05927224 0.051114853 0.15769751 -0.41229448 -0.26020178
-0.27568126 -0.20584163 -0.5512376 -0.21423163 -0.557485 -0.23424228 -0.47727337 0.06898136

network.4.weight f4 [128, 256]
00000000: 3ff8 b0bc 52c9 d73e d7a8 113e aec9 88bd
00000010: 00ee 4ebd b95a 8f3e aba1 b9be 18d6 333e
00000020: c984 6cbd 1464 acbe 87b3 88bd 5779 82be
00000030: f46f 893e 6771 4dbe 4cb8 c1be 2318 7dbe
00000040: cccb 6ebe 0fdb 23be 0e16 5fbd add0 e13d
00000050: 5a55 4abd 3f9a 17be 8f3c f33c 74c2 3d3d
00000060: 9b39 abbd 6175 69bc f210 b6bd 7feb cdbd
00000070: 3267 37be ab43 18be 819c 953c 5920 9e3d
00000080: 63d0 98bd 6e70 f83e 0df8 bdbb 764a 473d
00000090: 39f0 1c3e f5b2 9dba bd77 6f3e 01f7 ee3b
000000a0: d760 653d 00ad 39be d854 f83b 5b38 98be
000000b0: 6d16 a33e 2e09 85be 4025 c2bd 15e5 0e3e
000000c0: b678 18bb 238f 953e 59b7 453c a767 70be
000000d0: c824 de3d 1743 a23d f224 c43e 0005 f73d
000000e0: ba11 f53c 8c30 da3d a19a 20be 2ed7 05bd
000000f0: a139 3abe 6d43 3d3e 6412 883e 55bc ba3d
00000100: 844f 3d3e 6f7f 73bc d12e a83d c254 2f3e
00000110: b493 c5bc e105 e03d 3902 ddbd 618e c4bc
00000120: a7b0 7cbd b91b 95bc b6e1 89bd 855e 8d3e
00000130: 5280 3e3e 4451 7bbc bd5e b9be 0b1e 18bd
00000140: 925b c0be 5f9a 24bd 8af2 5f3c 542c 003e
00000150: 6bdb a13b 6c4f a43d 68db 81bd 981a c13d
00000160: b667 163e 5fac ac3d 8e18 24be 48e8 a3bd
00000170: e172 02be 7da7 bdbd e5fb 893c a507 c33d
00000180: 0d95 bcbe 33ba 90bd be09 a43d c5f4 023c
00000190: ce90 64bd f4fc fc3d 9b25 0abe 0cf7 8fbd
000001a0: 86e9 e33c 316e 593d c4f0 f83d 1d28 47be
000001b0: 5493 2ebe 803b 2e3e f4c0 413e b835 cfbd
000001c0: 3aaf 2fbd 6aa7 c63d 494c c5bd 5c2f 553e
000001d0: 0112 6f3e 9e47 493e 6a96 3b3d b089 c83d
000001e0: e862 f7bc 627a 01bd eb64 663e 59ff d2bc
000001f0: 6ab5 463d 6343 83bd ffbe 173d 9e5d c1bc
00000200: 022e 1dbe b727 233e 822c 1d3e b80d 0a3d
00000210: 2a73 03bd 2726 ff3c 596c bd3b e7c4 a1bd
00000220: b418 9f3d a0a7 91be c60f 86bd 94da 2abe
00000230: 7b5c 523e bb07 b6bd 9960 3d3b 4701 46be
00000240: fc37 82bd 7681 9dbc 452f 3c3c 6055 73bc
00000250: 1afe 0bbd f28c bf3d 9c4b 84be 2854 27bf
00000260: 4c36 b63d fb5d a93d 2b54 c23d 3b7f 2cbe
00000270: 001a 4f3e 5cf7 f43c b118 9e3d 5324 953d
00000280: 128a 36be 6333 9fbd f56a c23d ee02 cc3d
00000290: d6ea 663e 1a85 923e 7d13 873d 7208 983e
000002a0: e83d 02be 70de 42bd 1084 873d 874c 85bd
000002b0: 5e1e df3d 6a5f bd3e b13b e4bd b246 b63d
000002c0: 5f6b f7bd c4df a03e ce7c f9bc 466b dfbe
000002d0: 2e16 0d3d 4cc2 a8bd 5484 073e 0cdb c2bd
000002e0: dc12 74bc 8beb a0bd d228 373e 3c59 bbbd
000002f0: 785d 803c 2a79 573c 600c 953b 7758 8ebc
00000300: c78b cf3c d0a9 e33b dd99 76bd b783 b3bc
00000310: 7a37 e5bc 3c33 ff3d 4082 3dbf c10f 65bc
00000320: 751f 263e d765 0abf c31c 0a3e aae5 52be
00000330: edf4 08bd dddc 13be 03f4 033e 3ec4 36be
00000340: fd26 b6bd ca7c 4f3d 0c9d 84bc 3d91 b2be
00000350: 00aa 85bc eafe f738 940a 1a3d fed3 3bbe
00000360: 0818 c2bd 4998 3b3c 22b9 fdbb 029a 9fbd
00000370: 6bc0 94bc e259 a8be 57a6 77be 55b1 1b3e
00000380: fc75 89bd 8bd5 a33d 9385 4fbd c11d 04bd
00000390: 37b3 953e ac3b 38bd e4f8 5fbc df7b 65be
000003a0: bad3 633c 8066 043d 41f4 03be 817c 75be
000003b0: 10c4 6abd 2bef b1be db76 443d 7024 98be
000003c0: 64b2 3cbd a645 2abe 5f08 563e c07b 5e3e
000003d0: e7b7 a83d 6d3e a73e 8f58 f5be 9c65 d23d
000003e0: 6bcb 99bd d226 80bd f3bf 323d 0642 dabd
000003f0: 4be4 25be ba40 bf3c 5446 4fbe 25a8 d53d
-0.021602748 0.42145783 0.14224564 -0.06679092 -0.050519943 0.27998903 -0.36256155 0.17562139
-0.05774382 -0.33670104 -0.06674867 -0.254832 0.26843226 -0.20062791 -0.3783592 -0.24716239
-0.2331993 -0.16001533 -0.054464392 0.1102613 -0.049397804 -0.14804934 0.029691963 0.046328023
-0.08360597 -0.014249177 -0.08889951 -0.10054683 -0.1791046 -0.14869563 0.018263103 0.077210136
-0.074616216 0.48523277 -0.005797392 0.048654996 0.15326013 -0.0012031483 0.2338552 0.0072926288
0.056000557 -0.181324 0.0075784735 -0.29730496 0.31853047 -0.25983566 -0.09479761 0.13954575
-0.0023265309 0.29210767 0.012067639 -0.2347704 0.10846859 0.079229526 0.38309437 0.120615005
0.02991568 0.10653791 -0.15683986 -0.032675914 -0.18186046 0.18482752 0.2657653 0.09117953
0.18487364 -0.0148619255 0.082120545 0.17122176 -0.024118282 0.10938621 -0.107914396 -0.023993673
-0.061691906 -0.018201696 -0.06732504 0.27611175 0.18603638 -0.015339199 -0.36205092 -0.037138026
-0.37569863 -0.040186282 0.013668666 0.1251691 0.0049394867 0.08022961 -0.063406765 0.094289005
0.14688 0.08431315 -0.16024992 -0.080032885 -0.12739135 -0.092604615 0.016843745 0.095229425
-0.36832467 -0.07066765 0.08009671 0.007992928 -0.05580216 0.123529345 -0.13490908 -0.07029542
0.027821314 0.053083602 0.121552974 -0.19448896 -0.17048389 0.17014885 0.18921262 -0.10117668
-0.04289172 0.096999004 -0.09633691 0.20818847 0.23346712 0.19656226 0.045797743 0.09791887
-0.03019853 -0.031610854 0.22499435 -0.025756525 0.048512854 -0.06409337 0.037047382 -0.02360421
-0.15349582 0.15933119 0.1534901 0.03370449 -0.03209225 0.031146122 0.0057807383 -0.07898884
0.077683836 -0.284482 -0.06545977 -0.16684943 0.20543091 -0.08888193 0.0028896688 -0.19336425
-0.063583344 -0.01922677 0.011485879 -0.014851898 -0.034177877 0.09353055 -0.25838935 -0.6536279
0.08897075 0.082698785 0.0948871 -0.1684541 0.20224762 0.029903106 0.07719553 0.07282319
-0.17826107 -0.07773473 0.09493057 0.09961496 0.2255052 0.28617173 0.06595514 0.29693943
-0.12718928 -0.047575414 0.06616986 -0.06508737 0.10894464 0.36986858 -0.11144198 0.08900203
-0.12081026 0.3142072 -0.03045502 -0.4363653 0.03444498 -0.08240184 0.13234073 -0.09514436
-0.014897075 -0.07857426 0.17886665 -0.091478795 0.01566957 0.013151446 0.0045485944 -0.017376168
0.025335206 0.0069477335 -0.06020533 -0.021913392 -0.027980555 0.12460944 -0.7402687 -0.013980807
0.16222937 -0.54061645 0.13487534 -0.20595422 -0.033436704 -0.14439721 0.12886052 -0.17848298
-0.08894155 0.050656117 -0.016188167 -0.34876433 -0.016316414 0.00011825359 0.037607744 -0.18342587
-0.0947724 0.011449882 -0.007743017 -0.077930465 -0.018158158 -0.32881075 -0.24184547 0.15204366
-0.06711957 0.079997145 -0.050664496 -0.032254938 0.29238293 -0.044978783 -0.01367018 -0.22410534
0.01390546 0.032324314 -0.12886144 -0.23973276 -0.057315886 -0.34752783 0.047964912 -0.297153
-0.046068564 -0.16628131 0.20901631 0.21726894 0.082382016 0.32664815 -0.47919127 0.10273287
-0.07509502 -0.062574044 0.04364009 -0.10657124 -0.16200368 0.023346294 -0.20241672 0.10432462

network.4.bias f4 [128]
00000000: 8063 863c 85c1 cc3c d400 373d f21b 25bd
00000010: 37a7 9d3d 58db 01bc 6d4a 023e e70a f6bc
00000020: 5696 7f3d b7a3 f43c dd11 9f3d 3b8a 903d
00000030: 70e7 f0bc 5716 40bd 88b3 0d3d e306 263d
00000040: 3cef 7fbd b888 823c b5f2 863c 67db 203d
00000050: fb44 0cbe fe23 523d b210 4bbd c007 70bd
00000060: bcb8 eb3d 6814 37bc b1fd 883d d039 1c3d
00000070: 4d45 d43d 1674 5e3d d932 b83d d479 59bb
00000080: 19df 86bd 271d 11be a7e8 c83c 15f4 463d
00000090: d7af 063d fcbc 76bc 7f02 3fbd cea6 e5bb
000000a0: 6d4d e43c 99b8 18be 4a1c 913d 985b aabd
000000b0: 4331 d73c 39f5 4a3d 232f 023c 0d71 c33d
000000c0: 1389 da3b 09b2 d83b fe93 953d 4d1a d63d
000000d0: 7e7a 9b3c e57e 8a3c a286 8fbc 82c8 fb3c
000000e0: e8be c23c ca31 043c 636a f8bd f8ea 15bd
000000f0: aee9 c13d 6de8 d33c b080 f73c 4c8f b73b
00000100: 84cc ccbc 04ef 763b 8726 86bc 9a46 09bd
00000110: 251d 973d 7efc 73bd f35c 6b3c adde 6f3d
00000120: cc14 37bb d61b 14bd 1809 87bd da66 8e3d
00000130: 0191 4cbd 3613 483d 1e58 4f3d aac5 c23d
00000140: 6567 ecbc bf4a 5a3d ebd4 20bd 0ea7 af3c
00000150: e48b 403d f07e c43d b09a 073d 1839 1abc
00000160: 3968 813d 6a5b 9d3a 406b b83d 7233 913d
00000170: 3285 253c 6765 3d3b 2f8c c03d 0319 a63d
00000180: c96b a1bc f6ad 453d 9e6e c1bd 354a 0f3d
00000190: de2d 4fbd b687 f5bc ce1f 91bd 0e48 a63c
000001a0: 68f2 ddbd 0166 52bc 534a 953d e3af 893c
000001b0: 87af ab3d f67b 763c 0f37 053c 60a6 ad3c
000001c0: c178 a6bc b389 3e3d c516 9c3c b18c f2bc
000001d0: 1d03 673d 24cc 973b f80a 06bd e66b d93d
000001e0: 163b 273d 7bab 36bd f0e9 f83d 239c d3bd
000001f0: 2b95 33bd e6aa ed3d 0e24 a9bc c4e4 853d
0.016404867 0.024994621 0.044678524 -0.040309854 0.07697909 -0.007925831 0.12723704 -0.030034496
0.06239923 0.029863222 0.07767079 0.07057615 -0.029407233 -0.046896305 0.034595042 0.04053391
-0.06248401 0.015934333 0.016473154 0.03927174 -0.13698189 0.051303856 -0.04957647 -0.05860114
0.11509845 -0.011174299 0.06689013 0.03814107 0.103647806 0.054309927 0.089940734 -0.0033184187
-0.06585521 -0.14171277 0.024525 0.04857262 0.032882538 -0.015059706 -0.04663324 -0.00700841
0.02786895 -0.14914168 0.07085474 -0.08318251 0.026268607 0.04955027 0.007945809 0.09543047
0.0066691726 0.0066130203 0.07303618 0.10454235 0.018979307 0.016906211 -0.017520253 0.030735258
0.023772672 0.008068511 -0.12129667 -0.036601037 0.09468399 0.025867665 0.03021273 0.005601799
-0.024999864 0.0037679086 -0.016375793 -0.033514597 0.07378606 -0.059566967 0.014365423 0.05856197
-0.002793598 -0.03615936 -0.06593531 0.06953211 -0.049942974 0.048846446 0.050621144 0.09510358
-0.028857896 0.05329394 -0.039265554 0.021441963 0.04700841 0.09594524 0.033106506 -0.009413026
0.06318707 0.0012005393 0.09004831 0.070898905 0.010102557 0.0028899552 0.09401738 0.08110239
-0.019704716 0.048261605 -0.09444927 0.03498288 -0.05058085 -0.029971939 -0.070861444 0.02029803
-0.10837251 -0.012841702 0.07289567 0.016807502 0.083830886 0.015044203 0.008130803 0.021197498
-0.020321252 0.04651804 0.019053826 -0.029608103 0.056399453 0.0046324898 -0.032725304 0.10616283
0.040827833 -0.04459713 0.12153995 -0.10332515 -0.04384343 0.11604862 -0.020647075 0.06537774

network.5.weight f4 [128]
00000000: b24e c83f d849 263f 96e7 443f fdeb e83f
00000010: 5364 613f 55c2 393f 45ac 1e3f c3c4 5c3f
00000020: 6db9 5c3f c26d 6b3f e5ab 483f 2ca5 e83f
00000030: f1d4 863f aa87 6a3f 9d5c 263f 1460 933f
00000040: 5d95 543f a448 da3f f4c5 283f 18bb 733f
00000050: 3604 d33f 5cf4 233f 927e a73f 78a3 663f
00000060: 6107 073f af70 443f e98e c13f d162 543f
00000070: b0ee 423f 1cc5 a83f 4cdf f73f aa7c 4f3f
00000080: 8a2f 9a3f be66 c03f f10e 9f3f ba0c ac3f
00000090: f2a4 af3f 878c 3c3f a1c6 3a3f 384b 503f
000000a0: f7ea dc3f 378b f43f 1e2b 8b3f d3e5 bd3f
000000b0: 53d2 6b3f b1f2 bf3f 69ea 483f 319c 873f
000000c0: b9e7 403f 2fec 643f f73c aa3f 09eb 4e3f
000000d0: 6b95 0040 e7a6 c73f 9381 483f 3f91 2a3f
000000e0: ff67 503f 0a39 4a3f 0d08 cf3f 17bb 533f
000000f0: 269c 4f3f 183e 953f de4a 523f a08c b43f
00000100: 156a 273f 482d c13f 568e 983f c40c a03f
00000110: 6c79 943f 06e6 883f a3de 393f ce18 aa3f
00000120: a35e 823f bcd9 923f bff6 d13f 1fb6 363f
00000130: 85a4 433f 895c 6b3f 3f65 913f 4075 943f
00000140: 0ed6 8b3f cef9 813f 13ec 633f 8d81 733f
00000150: b422 813f 76df 433f d3e3 de3f 9188 443f
00000160: 7df2 ab3f 18c3 2e3f 22f9 b33f 126e 823f
00000170: 3a55 c73f c5ea 2b3f cef8 ff3e 1b50 e13e
00000180: 5284 e03f 6116 e23f e84a 653f 9b93 d03f
00000190: ee97 8d3f 265a 383f 93bd c93f 04c7 f03f
000001a0: 251e af3f 4fac 2f3f 9a81 533f 427f a93f
000001b0: ed47 2e3f 6656 4a3f 5415 293f ecd6 163f
000001c0: f449 453f 0de6 e03f acf6 1d3f 10db 433f
000001d0: fd1d 6d3f 3f12 cb3f e7ee 7c3f 8bd1 c83f
000001e0: 7a0b c63f 6dcd 863f 86a2 623f 167e b23f
000001f0: 0416 8d3f 6dbf 183f 5ef5 553f 87aa bd3f
1.5649016 0.64956427 0.7691587 1.8197018 0.8804371 0.7256215 0.6198161 0.86237735
0.8622044 0.9196435 0.7838729 1.8175406 1.0533735 0.91613257 0.64985067 1.1513696
0.8304041 1.7053418 0.6592705 0.9520736 1.648566 0.6404474 1.3085501 0.90093184
0.52745634 0.7673444 1.5121738 0.8296328 0.7614546 1.3185153 1.936502 0.810496
1.2045758 1.5031354 1.2426435 1.3441384 1.3722212 0.7365193 0.72959334 0.81364775
1.7259206 1.9104985 1.0872533 1.4835762 0.92117804 1.4995939 0.7848268 1.0594541
0.7535358 0.8942289 1.3299855 0.80827385 2.0091197 1.559781 0.78322715 0.6662788
0.81408685 0.78993285 1.6174332 0.8270735 0.8109764 1.1659575 0.8214549 1.4105415
0.65396243 1.5091944 1.1918437 1.2503896 1.1599555 1.0695198 0.7260534 1.328882
1.0185131 1.1472697 1.6403426 0.71371645 0.7642291 0.9193807 1.1359023 1.1598282
1.0924699 1.0154359 0.89032096 0.95119554 1.0088716 0.7651285 1.7413276 0.76770884
1.3433377 0.6826644 1.4060404 1.0189841 1.5572884 0.67155105 0.4999451 0.44006428
1.7540381 1.766308 0.8956742 1.6295046 1.106199 0.72012556 1.5760978 1.8810735
1.3681074 0.686223 0.8261963 1.3241961 0.680785 0.79038084 0.6604817 0.58921695
0.7706597 1.7570206 0.61704516 0.7650614 0.92623883 1.5864943 0.98802036 1.5688947
1.5472252 1.0531441 0.8852924 1.3944728 1.1022344 0.5966709 0.83577526 1.4817666

network.5.bias f4 [128]
00000000: f8f8 febd 73b4 a8be 87c2 74be 8b9e 66be
00000010: 1999 2bbe ee0a aabe a695 9fbe e994 45be
00000020: 8560 94be 8b0b 37be bf0f 93be 69c8 8dbd
00000030: 7286 64be c670 3fbe 6a71 adbe 2b96 38be
00000040: d7e7 27be e45a 24be 57d6 4fbe b04f c2be
00000050: 4c79 5fbe b7b1 a8be 9f80 6bbe 66e8 44be
00000060: b508 acbe a01e 3abe 89d9 88be 10d7 89be
00000070: 4e50 8fbe 8c28 aabd 2d2f fcbd e196 70be
00000080: 99c2 92be d7e1 babe bf5e c0bd 50e4 a2be
00000090: 7135 7bbe 5676 35be bce2 38be c17e 4fbe
000000a0: 273b f4bd 0cd2 b0be fc08 b6be a1c1 82be
000000b0: eb0c a7be 1de5 98be bed2 05be 57a4 e5bd
000000c0: d5aa 64be f08f 56be 5d3b 84be 0129 8abe
000000d0: 73a1 51be b815 6ebd af5d 54be 3514 6dbe
000000e0: eb17 94be 2fbb 51be 0891 51be 3034 31be
000000f0: a362 a9be 679a 65be 2824 87be 9035 8bbe
00000100: cfc8 49be fddd 62be 9d74 35be 2fd7 95be
00000110: ea4a 64be b7a5 a2be d082 76be 5025 83be
00000120: 432a 27be 8d85 35be e15c e3be d488 46be
00000130: f884 1cbe c97f 8dbe c8ef 56be 3c51 54be
00000140: 9f9d 93be 7608 97be 833e 5dbe cbea 8bbe
00000150: 21b2 3fbe 1e51 32be 2f74 98bd cf49 39be
00000160: ec4a b3be ae3f 58be fc74 d2be 6a67 75be
00000170: b163 88be 494d 88be 3f1e aebe 1ec0 bcbe
00000180: 5274 88be 9fc9 38bc 2d59 7dbe cd7a 1ebd
00000190: ab4d 38be 35f0 53be e359 97be 7d0d 66bd
000001a0: 1be5 76be d469 48be 0f98 7abe 1453 b5be
000001b0: 3965 b6be 3972 51be 45d1 89be d96b a1be
000001c0: 00fe 3cbe 1f43 18bd e736 15be a713 60be
000001d0: 56a5 51be 578b 92be 7a87 6abe 6cf6 efbd
000001e0: 6935 8fbd 77f1 8dbe 8a47 24be 5c7c 32be
000001f0: 6740 99be 9d99 9cbe 222e 6fbe 2ffc d1be
-0.12449831 -0.32950172 -0.23902331 -0.22521417 -0.16757621 -0.33211464 -0.3116886 -0.19295086
-0.2897989 -0.17875497 -0.2872295 -0.06922991 -0.22316912 -0.18695363 -0.3387559 -0.18026035
-0.16397034 -0.16050297 -0.20296608 -0.37951422 -0.21823615 -0.32948086 -0.22998284 -0.19229278
-0.33600393 -0.18175745 -0.26728466 -0.26921892 -0.27990955 -0.08308515 -0.123136856 -0.23495056
-0.2866409 -0.36500427 -0.093930714 -0.31814814 -0.24532105 -0.17720923 -0.18055242 -0.20263197
-0.11925345 -0.34535253 -0.3555373 -0.25538352 -0.32627043 -0.298623 -0.13068673 -0.11212986
-0.22330792 -0.20953345 -0.2582654 -0.26984408 -0.20471744 -0.05812618 -0.20738862 -0.2315224
-0.28924498 -0.20481561 -0.20465481 -0.17305064 -0.33083066 -0.22422181 -0.26394773 -0.27189302
-0.19705509 -0.22154994 -0.17720266 -0.29265735 -0.22294202 -0.31767055 -0.24073339 -0.25614405
-0.16324715 -0.17726727 -0.44406798 -0.19388133 -0.15285099 -0.27636555 -0.20989907 -0.20734113
-0.28831193 -0.29498643 -0.21605878 -0.2732757 -0.18720295 -0.17413756 -0.07444035 -0.18094562
-0.35018098 -0.21118042 -0.41104877 -0.2396523 -0.26638559 -0.26621464 -0.3400745 -0.36865324
-0.26651245 -0.011278539 -0.24741049 -0.03869133 -0.17998378 -0.206971 -0.29560766 -0.056165207
-0.24110834 -0.1957162 -0.24472068 -0.35414946 -0.35624102 -0.20453729 -0.26917472 -0.31527594
-0.18456268 -0.037173387 -0.14571725 -0.21882497 -0.20473227 -0.28621933 -0.22903243 -0.11716923
-0.06992609 -0.27723286 -0.16042915 -0.17430252 -0.29931948 -0.30585948 -0.23357442 -0.41012713

network.8.weight f4 [64, 128]
00000000: 4336 b4bd 9634 c23d e3c4 b93d cf15 403e
00000010: 13f5 c4bd 69e3 a0bc 3c92 48be 4817 63be
00000020: d9b0 9ebd 09a7 883e 9750 a2bd de15 a0bd
00000030: a9e9 9f3e 4902 4c3d 6986 ec3c 1d6b 683e
00000040: 5cbe 593e 9e99 a4bc 5475 ad3b d21e 3abd
00000050: 74fc 9c3e 84d6 c53c 1cc4 f13d 9df6 953d
00000060: a609 923d 487d 2e3e d49c f5be 1430 09be
00000070: 0226 83bc 9a53 99be 075e 513d 18d4 18be
00000080: aa3f 5c3e 9ce3 963d 5a48 a4be eefc 8e3e
00000090: c482 1cbd a150 9fbc 3be5 a7b9 90a7 e7bd
000000a0: 0f65 80be f6aa 7fbe 2619 a0bd fe32 033f
000000b0: 9f5f 663e ba68 4cbe a6f3 713d 7689 793e
000000c0: 7ecd e3bd f2ab 45bd e50a 92be 4065 9e3e
000000d0: 0915 de3e 7f1e 88bd a851 f93c 1898 83bd
000000e0: bd98 eebc fa4a 5a3d df8b a23e 8470 ffbd
000000f0: f458 923d 62e1 a43d 53c9 a1ba 8759 623e
00000100: 5e87 423e 57fb 41bc fcb4 823e 6113 f03d
00000110: a47d 32bd 6c3d 063e 8ab7 bbbd e917 083c
00000120: 4719 443e db4e 973e 4a7f d7be 17d6 64bd
00000130: 7c1c 1a3d a5f3 a93d 46de 1b3e 8be2 d23c
00000140: a78b 05bd 45b1 033d a7aa 4ebe 1dc0 7dbe
00000150: a6b0 6f3c edc7 f93d 1d62 81be da3a aabe
00000160: 4818 253e 3746 ea3c 1ddc 41bd 8d48 f4bd
00000170: 71c7 ce3e e0b7 ae3d ed5e 73be 746c 5f3d
00000180: 2720 0c3a 1259 04bf f734 733e 0516 adbe
00000190: 85d4 943d 78a5 8abc 4588 173d 00db 9fba
000001a0: aa53 383e 91af 613e 0765 11be 14a6 5a3e
000001b0: eda1 6d3c 500b 303c 0c5a 59be 1e48 9fbb
000001c0: 15df 303d 9e54 bdbe 5263 1ebd b004 7ebe
000001d0: 4621 693e 1d82 0a3d d818 a03d f996 9fbe
000001e0: 64d4 e8bd 0640 08bd 7226 8b3d b216 213e
000001f0: 4ecc 84bd c7e8 773d a96a debc 8c91 e4be
00000200: 5f6a 393e 8366 943e a1d2 853e f5a0 95be
00000210: d9b8 9f3d db5e 7e3e b2b4 a13d cf36 973e
00000220: 20e6 e5bd da51 093d ba1c 19be f05c b4bc
00000230: 7cc1 84bc 27d6 a13d b09c ef3d 1cab 003d
00000240: 89a4 e53d 9576 02be 17b7 9fbd f49c 873e
00000250: df5f 463e 4b17 993d dfae 983e c6c2 05bc
00000260: 8b4d 213e 4116 053e 2ce2 0d3e 4cc4 f8bd
00000270: db67 823d 761f bb3d 552e 9bbd 1065 943e
00000280: bbc1 20bd 4fa8 823e 605e 83be b84c a0bd
00000290: 2999 783e 9f5a 923d 2d20 ac3e b995 943d
000002a0: 2e95 583d fb27 0a3f bd35 04be 7b4d bc3e
000002b0: 2002 e73d e999 a4bd b219 333e c59a 4b3e
000002c0: cc7e 873e ecca 063e 86d7 b13e 8adf 213d
000002d0: b256 7d3e 02d8 7cbd 1fad 8cbd f1d0 653d
000002e0: 9be1 ef3d b446 5a3d dd41 033e 5fc2 f33d
000002f0: a042 3d3e 5a01 323e 3868 bf3e d998 193e
00000300: 9467 143e 7b40 01be 08f3 773e c923 2bbc
00000310: 8856 493e 1c57 db3d 7a15 653e f05f c83d
00000320: ad8c b43e f8e6 063d f76f b63d 1c9a b33d
00000330: 638b d23d 429c 543d 6004 23be d1b1 cabe
00000340: 4d55 603e 353d 6c3e 851e 783e f36a 073d
00000350: d9a7 f33d 1ac9 1b3d 9a9c 1ebf 5c98 193e
00000360: a3f9 483e 7ffa 2d3e 81c5 823d 6bd0 a13e
00000370: ba4c efbe 1e17 5f3e f771 183e 2a5b 213e
00000380: 3570 9f3e b662 87be fa2f 373e 174d 99bd
00000390: d5d6 4f3e 642d 073e 1907 54bc 3ef7 c2be
000003a0: 1011 293e 6b64 8e3e 21ca bcbd 5ca2 5d3b
000003b0: 43e9 3bbe d1e6 c23d 285a 8a3e 11b5 5abd
000003c0: d867 9d3d 78b8 8ebe c139 ae3d 3090 573e
000003d0: e004 ba3e 5ee2 283d 4b0f 903e 7800 0bbe
000003e0: 070f 13be 6ff3 a13d 5cbd 103e 0fbc b73e
000003f0: 09c0 9b3e c975 983e 1572 2b3e 3578 873d
-0.08799412 0.09482686 0.09070756 0.1875832 -0.09617057 -0.019639688 -0.19587034 -0.2217685
-0.07748575 0.26689938 -0.079255275 -0.07816671 0.31232956 0.049806867 0.028872686 0.2269711
0.21264023 -0.020092782 0.0052935276 -0.04543955 0.30661356 0.02415014 0.11804983 0.073224284
0.071307465 0.17039979 -0.47971213 -0.13397247 -0.016009334 -0.29946595 0.051115062 -0.14924657
0.21508661 0.07367632 -0.3208645 0.27927345 -0.038210645 -0.019447627 -0.00032023512 -0.11311257
-0.25077102 -0.2496756 -0.07817297 0.5124968 0.22497414 -0.19961825 0.059070252 0.24368843
-0.11123179 -0.048259683 -0.28523937 0.30936623 0.43375424 -0.06646442 0.030434445 -0.06425494
-0.029125566 0.05329416 0.31747338 -0.124726325 0.07145873 0.08050801 -0.0012343324 0.22104464
0.18996951 -0.011839709 0.25528705 0.11722446 -0.04357685 0.13109368 -0.09165867 0.008306482
0.19150268 0.2955235 -0.420893 -0.055868234 0.03762482 0.08298425 0.1522151 0.02574279
-0.032603886 0.03215148 -0.20182286 -0.24780317 0.014629519 0.12196336 -0.25270167 -0.33248025
0.16122544 0.028597934 -0.047329057 -0.119279005 0.40386537 0.08531165 -0.2376668 0.05454679
0.0005345367 -0.5169841 0.23750673 -0.33805862 0.072670974 -0.016924605 0.03699519 -0.0012196004
0.18000665 0.2203963 -0.14198695 0.21352416 0.014503938 0.010744885 -0.21225756 -0.004860892
0.043181498 -0.3697862 -0.038668938 -0.24806476 0.22766599 0.033815492 0.078172386 -0.3116987
-0.11368635 -0.033264183 0.06794442 0.15731314 -0.064842805 0.06052473 -0.027150469 -0.44642293
0.18106984 0.2898446 0.2613726 -0.29224363 0.07798929 0.24840872 0.07895793 0.29534003
-0.112255335 0.033525325 -0.14952365 -0.022016972 -0.016205542 0.079021744 0.11699808 0.031413183
0.11213023 -0.12740548 -0.077985935 0.26486933 0.1937251 0.07475146 0.29820916 -0.008164113
0.15752237 0.1299677 0.13855809 -0.12146816 0.06367465 0.0913686 -0.075771965 0.28983355
-0.039247256 0.25519034 -0.2565794 -0.07827133 0.24277176 0.07146191 0.33618298 0.0725512
0.052876644 0.53967255 -0.12911125 0.36777863 0.11279702 -0.080371685 0.1749027 0.19883259
0.26463926 0.13163346 0.34734744 0.039519824 0.24740103 -0.06172944 -0.06868958 0.056107465
0.11712953 0.053290084 0.12818094 0.11902308 0.18482447 0.17383328 0.373842 0.14999713
0.14492637 -0.12622254 0.24213803 -0.010445544 0.19661915 0.10709974 0.22371474 0.097839236
0.35263577 0.032935113 0.08908074 0.087696284 0.10280492 0.05190683 -0.15919638 -0.39588788
0.2190754 0.23070224 0.24230392 0.03306098 0.11897249 0.038033582 -0.61957705 0.14999527
0.19626479 0.16990088 0.06385327 0.31604323 -0.46738225 0.21786162 0.14887224 0.15757433
0.31140295 -0.26442498 0.17889395 -0.07485407 0.20296796 0.13200909 -0.012941145 -0.38079256
0.16510415 0.27810988 -0.092182405 0.0033818698 -0.18350701 0.09516681 0.2702191 -0.053395335
0.07685822 -0.27875113 0.085071094 0.21051097 0.36331844 0.041231506 0.28136668 -0.13574398
-0.14361201 0.079077594 0.14134735 0.35885665 0.3041995 0.29777363 0.16742738 0.066147245

network.8.bias f4 [64]
00000000: 88b0 b73b b2f6 3e3e 6a9a 90bd f741 c1bd
00000010: 0fc1 ddbc cc3c 5d3c d339 85bd 88fc e13c
00000020: 5a72 ee3d 978f 913d 0bff 9bbd e96d b53d
00000030: 8f19 c93c 2576 843d 8c87 333c dfca 2abc
00000040: 7388 13bd b071 f4bd 6186 363d 35d1 023d
00000050: ca33 5abc caef 843e bf75 a33d 6a16 9839
00000060: 97d9 f03c ce27 6a3d c22a 703d 648f 863d
00000070: 9672 023e a084 04bc fa32 b03d 270e c6bd
00000080: cd99 e13d 8d1c 5abd d1e5 043d 4cc0 cd3a
00000090: 51cc 61be b592 1e3e 2553 27be ce85 053d
000000a0: 1c23 c5bd 8ce3 8a3d 6812 d73c 2b7e 333e
000000b0: 2a34 9c3d 9277 513d f8c0 e7ba 2c5f 85bd
000000c0: ea43 f23c bc2a a9bd 772b 6e3d f0a4 7c3e
000000d0: a229 adbd fe60 97bd 7824 a03d b4c4 4dbd
000000e0: 169b e63d acf1 a9bd 9a7d bb3d 2e9e eebd
000000f0: caa1 203d 1f4c 1b3d 9bdb ce3d 004c 87bd
0.005605761 0.18648794 -0.07060702 -0.0943641 -0.027069597 0.013503265 -0.0650517 0.027586237
0.116429046 0.07107466 -0.07617005 0.08858854 0.02454832 0.06467847 0.01095761 -0.010424345
-0.0360188 -0.11935747 0.044561747 0.031937797 -0.013318012 0.25964195 0.07981443 0.000290084
0.02940063 0.057166867 0.058634527 0.06570318 0.12739024 -0.008088261 0.08603473 -0.09670668
0.11015663 -0.053249884 0.032445733 0.0015697568 -0.22050597 0.15485652 -0.16340311 0.03259831
-0.09625837 0.06781682 0.026253894 0.17528598 0.07627137 0.05113942 -0.001768141 -0.06512293
0.0295734 -0.08260104 0.05814692 0.24672294 -0.084552065 -0.07391547 0.07819456 -0.05023642
0.11260049 -0.082980484 0.09154816 -0.11651264 0.039216794 0.03791439 0.1010048 -0.06606293

network.9.weight f4 [64]
00000000: 31fb 603f 1107 2a3f 7855 903f ea40 bb3f
00000010: f17b 5a3f 561d 563f d402 593f ed80 5e3f
00000020: 9066 2a3f 41aa 4d3f 8ff1 963f 1f67 513f
00000030: 74ed 823f e5ed 4e3f 14fe a83f c401 a23f
00000040: 3bf4 903f 4730 c53f 5330 4c3f f31c 733f
00000050: 66ca 573f 5c3e 243f ae84 3c3f 19a4 5c3f
00000060: 7fdd 893f 2326 443f 3b88 633f ee1d 363f
00000070: a98a 473f 53ea 593f 8a2b 513f 08a2 ab3f
00000080: 8b03 423f 32a8 873f bf01 513f f6da 7b3f
00000090: a489 d63f f441 2c3f 8040 9f3f 726f 613f
000000a0: 17ef c73f 20e5 673f 5131 4c3f a012 523f
000000b0: f74d 6e3f a405 4b3f 6de4 973f 6b33 6a3f
000000c0: aa00 6e3f 50b1 c33f 0440 4e3f c2fa 243f
000000d0: 4ed0 b93f f4b1 c03f e28f 333f 9e91 9f3f
000000e0: 6997 3b3f c2a1 cc3f 48b8 483f aa40 b33f
000000f0: e724 8b3f 0232 483f 9b4e 503f 56ac 603f
0.8788329 0.6641703 1.1276083 1.4629185 0.8534537 0.83638513 0.8476994 0.86915475
0.6656275 0.8033791 1.1792468 0.81797975 1.0228715 0.8083175 1.3202538 1.2656789
1.1324533 1.5405358 0.79761237 0.9496605 0.8429321 0.6415765 0.73639953 0.86187893
1.077072 0.7662069 0.88879746 0.7113942 0.77945954 0.85123175 0.8170706 1.3408823
0.75786656 1.0598204 0.8164329 0.9838098 1.6760755 0.67288136 1.2441559 0.8806068
1.561984 0.9058399 0.7976275 0.8205967 0.93087715 0.7930548 1.1866585 0.9148471
0.92969763 1.5288486 0.8056643 0.64445126 1.4516695 1.5054307 0.7014142 1.2466314
0.7327791 1.5986865 0.7840619 1.4004109 1.0870637 0.78201306 0.8136994 0.87762964
