preprocessing/2024-10-23-silan/imputation_models/power_model.pt (torch, 182075 bytes, 18 tensors)

input_norm.weight f4 [5]
0.9588909 0.94569075 1.0796906 0.9114368 0.6131466
00000000: e079 753f ca18 723f 4d33 8a3f ec53 693f
00000010: 2df7 1c3f

input_norm.bias f4 [5]
0.14779726 0.05394351 0.14677647 -0.038965806 0.07086933
00000000: 2a58 173e dff3 5c3d 924c 163e 9c9a 1fbd
00000010: f023 913d

input_norm.running_mean f4 [5]
0.031944167 0.050963785 0.057036936 0.066471905 0.013084732
00000000: e3d7 023d 67bf 503d 909f 693d 6c22 883d
00000010: 5861 563c

input_norm.running_var f4 [5]
0.0236189 0.03865932 0.04023498 0.051842704 0.028224034
00000000: 6c7c c13c 3c59 1e3d 6fcd 243d 0459 543d
00000010: 1736 e73c

network.0.weight f4 [256, 5]
-0.48354158 0.24926315 -0.43257636 0.20730829 -0.6792066 0.008550859 0.6313664 0.55331457
-0.5686395 0.052469973 -1.0611274 0.1068024 0.46620554 0.45618987 -0.19531451 0.20217454
-0.4687303 0.64367557 -0.27933818 0.13815142 -0.36899564 0.8783221 0.89012814 -0.280268
-0.94423324 0.2960196 0.045966107 -0.51992255 0.96995014 -1.0722375 -0.11742956 -0.108568616
0.48114035 -0.563873 0.07332735 0.7177364 -0.7973345 0.5568693 -0.048910663 0.96223605
-0.8379836 0.609475 0.25266355 0.024807187 0.024578141 0.78860134 0.08997674 -0.24787883
-0.7754537 0.24728459 0.44145122 0.59978735 -0.3252017 0.34866327 -0.03825678 -0.59883785
-0.012589548 -0.7897071 0.7283657 -0.13181613 0.15543565 -0.22396524 0.49983084 0.16289462
-0.17623892 -1.1264236 0.0058446364 0.67724276 -0.03261249 0.26742095 -0.21629453 -0.4122215
-0.17491715 0.93122864 0.24908143 0.27074417 -0.47272947 -0.43419534 -0.24734186 0.2139765
0.40790763 0.16965027 -1.6277248 0.76585954 0.61129475 -0.2894921 0.44089592 0.27794355
0.011864717 -0.07966356 -0.90230733 0.20058891 -0.97601104 0.658601 -0.57374036 0.13495648
0.7819249 -0.72725254 -0.39438283 -0.32426068 1.055378 -1.5486027 0.08262033 0.36550364
-0.28465462 -0.627491 -0.28296152 0.9646089 -0.17880549 -0.11988246 0.3218024 -0.28967813
-0.15391031 0.4260746 -0.1800121 0.11376829 -0.13046221 0.5303115 -0.3853095 0.26106057
0.056828696 -0.16685288 0.5390186 -0.8635573 0.045498393 0.31433472 -0.3585326 0.5508398
0.05610921 -1.3522097 0.86357516 0.4953007 -0.8990543 -0.13576627 -0.8881605 0.6213611
0.09960599 0.4883065 -0.5378639 -0.52321136 0.9671256 -0.9599103 0.13877393 0.275532
0.06176788 -1.1179415 0.20935482 -0.22042716 0.8949241 -0.08215232 -0.13374127 0.45996532
0.19277872 -0.549434 1.4006743 0.056554504 0.24017619 -0.8338321 -0.40369704 0.30545887
0.43536314 -0.38861778 0.15315491 -1.3767008 0.48714054 -0.039460566 0.30598706 -0.042555332
0.012905599 -0.093816325 -0.15845582 -0.2149998 1.4317791 0.3432372 0.61466974 -0.31958228
0.12434077 0.055416748 0.24726386 0.62256235 0.82488203 -1.1149422 0.2415447 -0.004165362
0.0017986487 -0.28473055 -0.120456904 -0.48125795 -0.022831714 1.1534221 -1.3550727 1.636966
0.7197184 -0.80045956 0.13899633 0.4604769 0.45861074 -0.6465372 0.62757623 -0.034116488
-1.314193 -0.3809329 0.32014272 -0.04714119 1.0449244 0.43297672 -0.26742572 -0.7822074
0.43822303 0.99098635 1.4028835 -0.67446554 -0.072583504 -0.29354587 -0.5222505 -1.2126514
0.5475157 0.6952853 0.49488047 0.10789198 -1.2305744 0.1090354 -0.9735046 0.4119037
0.31617317 0.8265279 -0.45651418 -0.51717335 0.18398555 -0.6253007 0.09135632 -0.5864401
0.6953911 -0.99789244 -1.5241573 -0.2746727 0.56523424 -0.28857356 -0.021228474 -0.059689045
0.15711322 0.344528 0.79294735 -0.6611819 -0.72674423 -0.36982268 0.6527882 -0.48968285
0.11668793 -0.0041426746 -0.45407453 -0.094106995 0.74509394 -0.19432557 0.4836273 -1.2190562
00000000: c392 f7be d73e 7f3e a67a ddbe a048 543e
00000010: 7ce0 2dbf e718 0c3c 3aa1 213f 06a6 0d3f
00000020: 5c92 11bf c1ea 563d 06d3 87bf 37bb da3d
00000030: 7eb2 ee3e b891 e93e 8700 48be d806 4f3e
00000040: 6bfd efbe ecc7 243f 6a05 8fbe 9177 0d3e
00000050: ffec bcbe b8d9 603f 70df 633f 4a7f 8fbe
00000060: 45b9 71bf e28f 973e f546 3c3d a519 05bf
00000070: a74e 783f 143f 89bf e97e f0bd 3959 debd
00000080: 0758 f63e fb59 10bf a62c 963d 93bd 373f
00000090: 1d1e 4cbf fd8e 0e3f 8c56 48bd 1a55 763f
000000a0: 1886 56bf 8e06 1c3f 1e5d 813e 7138 cb3c
000000b0: 1958 c93c c7e1 493f ba45 b83d f3d3 7dbe
000000c0: 2284 46bf 2c38 7d3e e505 e23e aa8b 193f
000000d0: d680 a6be fe83 b23e 24b3 1cbd 704d 19bf
000000e0: 6444 4ebc 3f2a 4abf 2d76 3a3f cffa 06be
000000f0: 862a 1f3e 2557 65be d4e9 ff3e d9cd 263e
00000100: fa77 34be a62e 90bf 5d84 bf3b c85f 2d3f
00000110: ad94 05bd 66eb 883e 507c 5dbe b20e d3be
00000120: 7b1d 33be 0065 6e3f 340f 7f3e fb9e 8a3e
00000130: 9909 f2be da4e debe 2f47 7dbe a81c 5b3e
00000140: 45d9 d03e cdb8 2d3e 4959 d0bf 5f0f 443f
00000150: d07d 1c3f 4f38 94be 1cbd e13e 9e4e 8e3e
00000160: 3b64 423c a626 a3bd 9dfd 66bf 2e67 4d3e
00000170: dcdb 79bf 139a 283f a6e0 12bf 0832 0a3e
00000180: 3b2c 483f 392d 3abf 8cec c9be 7f05 a6be
00000190: a016 873f 9d38 c6bf d934 a93d 4b23 bb3e
000001a0: 40be 91be 40a3 20bf 55e0 90be 9cf0 763f
000001b0: c918 37be ef84 f5bd 49c3 a43e b150 94be
000001c0: aa9a 1dbe 7326 da3e 1855 38be 59ff e83d
000001d0: e397 05be 7fc2 073f 4947 c5be bba9 853e
000001e0: 35c5 683d 7bdb 2abe 1ffd 093f 1712 5dbf
000001f0: 865c 3a3d 7bf0 a03e 9691 b7be d603 0d3f
00000200: c5d2 653d 3515 adbf 4313 5d3f 0e98 fd3e
00000210: 6c28 66bf 5006 0bbe 7d5e 63bf 8511 1f3f
00000220: 3afe cb3d 4f03 fa3e 73b1 09bf 2ef1 05bf
00000230: 8b95 773f aebc 75bf c11a 0e3e 8812 8d3e
00000240: 5100 7d3d b518 8fbf 1c61 563e a8b7 61be
00000250: bf19 653f 7a3f a8bd 79f3 08be 9380 eb3e
00000260: c967 453e b5a7 0cbf 4c49 b33f b2a5 673d
00000270: bff0 753e 0576 55bf 61b1 cebe 1b65 9c3e
00000280: ebe7 de3e e9f8 c6be a4d4 1c3e bb37 b0bf
00000290: 7c6a f93e 67a1 21bd 56aa 9c3e 804e 2ebd
000002a0: 0172 533c c622 c0bd 3e42 22be e828 5cbe
000002b0: 8a44 b73f c9bc af3e ff5a 1d3f 4aa0 a3be
000002c0: 60a6 fe3d acfc 623d bd32 7d3e 3f60 1f3f
000002d0: 782b 533f 6db6 8ebf 7e57 773e 977d 88bb
000002e0: a3c0 eb3a 34c8 91be 1cb2 f6bd 7167 f6be
000002f0: 9309 bbbc 56a3 933f 0673 adbf 1a88 d13f
00000300: 773f 383f ebea 4cbf 0e55 0e3e a1c3 eb3e
00000310: 07cf ea3e 7683 25bf d6a8 203f bbbd 0bbd
00000320: 7a37 a8bf a309 c3be bfe9 a33e 1f17 41bd
00000330: 15c0 853f 20af dd3e 06ec 88be bf3e 48bf
00000340: c55e e03e 48b1 7d3f b091 b33f c6a9 2cbf
00000350: a9a6 94bd a54b 96be 35b2 05bf 2938 9bbf
00000360: fd29 0c3f 38fe 313f f960 fd3e 78f6 dc3d
00000370: 7683 9dbf f44d df3d 9937 79bf 0be5 d23e
00000380: 73e1 a13e 5597 533f 3abc e9be 7965 04bf
00000390: b566 3c3e b513 20bf 0619 bb3d f020 16bf
000003a0: 2705 323f e175 7fbf 9617 c3bf e6a1 8cbe
000003b0: 31b3 103f eabf 93be 56e7 adbc 807c 74bd
000003c0: 4ae2 203e f965 b03e 99fe 4a3f 3843 29bf
000003d0: e90b 3abf 6659 bdbe 211d 273f b6b7 fabe
000003e0: 15fa ee3d 46bf 87bb 757c e8be 2bbb c0bd
000003f0: 7abe 3e3f 48fd 46be ff9d f73e 090a 9cbf

network.0.bias f4 [256]
0.14107022 -0.23788483 -0.19317597 0.20533757 0.19669408 0.15495093 -0.17440681 -0.53270996
0.31055325 -0.28162575 -0.4558374 -0.13683206 0.40023154 0.05769968 0.29097545 0.09848261
0.15480123 0.48024485 -0.10125342 0.21778665 -0.09481473 0.08020925 0.30405983 -0.5748695
-0.20654789 0.11740673 0.021561632 0.24858056 -0.073039256 -0.09428336 0.056455564 0.083043896
-0.26094186 0.34184825 0.080504924 -0.023769524 0.16734783 -0.32110342 0.1520044 -0.5223971
-0.407297 -0.16180784 -0.0592795 -0.16707647 -0.076889634 -0.049698632 -0.083881035 0.31286764
0.25622723 0.28291875 -0.32987973 -0.2374106 -0.15696393 0.024133766 0.40886632 0.2961138
-0.02130912 0.24015525 0.4023845 0.28284803 0.39552635 -0.3673706 -0.26168284 -0.3840893
0.085849985 -0.075298555 -0.53745466 -0.17249535 0.28137252 0.2523928 -0.07900635 -0.04747752
0.22288133 0.40357503 0.05069277 -0.10622296 -0.14347954 0.42181692 0.07882643 -0.7325894
0.2533966 0.14801191 0.12772813 -0.07803405 0.20696735 0.2777587 0.056337543 -0.05339617
-0.33819124 -0.2317802 -0.35136893 -0.15054178 0.2161677 -0.12121502 0.06939272 0.43581408
0.07466831 0.12816696 -0.114136375 -0.2441781 -0.15418498 -0.34244326 0.2460141 0.23876198
0.28814796 -0.10454783 -0.048734527 -0.012813192 -0.4503742 0.043880798 0.029400198 -0.058384158
0.104187906 -0.18666016 -0.07941128 0.16189842 0.26045045 0.40935168 0.082196146 -0.2556828
-0.18464264 0.09719628 0.4147731 0.37298772 -0.034233548 0.36714965 0.4826154 -0.0076096314
0.3534745 -0.23234501 0.12597527 -0.043867998 0.0057366975 -0.13870336 -0.42440024 0.029828478
-0.0678367 -0.076981135 -0.0768824 -0.22828108 0.10062688 0.15408252 0.013728155 0.48173982
0.2948175 -0.2699183 -0.21525332 -0.25972953 -0.12446764 -0.22001079 -0.029886495 0.03576521
-0.17405313 0.31279865 -0.23620555 -0.36771885 0.3300785 0.29462993 -0.054596793 0.23482166
0.29648003 -0.3885093 -0.23870575 -0.4577103 0.10102112 0.35852766 -0.009192331 0.117069796
0.40179482 0.048763197 -0.22462574 0.1326817 -0.14867967 0.1323418 0.347258 -0.12520592
0.29037565 -0.3141916 0.12211654 0.06274862 -0.15816218 -0.12933816 -0.018944329 0.13942136
0.0080549065 -0.017683337 0.22471972 0.097194366 0.2426486 -0.017715342 -0.0626965 0.22601584
-0.29458475 0.107322924 0.10415114 -0.06635882 -0.2569921 -0.14284837 0.29005623 0.29808292
-0.21841693 0.21867271 0.045381945 0.13367434 0.06940023 -0.0009975143 0.3445307 -0.17869633
0.22347446 0.03835621 -0.07189487 0.20164411 -0.08811602 0.24781546 0.22008054 0.16725916
0.26106593 0.3691328 -0.077464774 -0.09288967 -0.2854104 -0.05770369 -0.077477135 -0.3472096
-0.07033306 -0.14048737 0.17686327 -0.38095134 -0.16957638 0.24450369 0.20760834 -0.28103733
-0.20243223 -0.15662646 0.35759774 0.27572915 -0.32192466 -0.33882758 0.53500515 -0.20763522
-0.60325044 -0.0029266432 -0.22581087 0.22272587 -0.06549899 -0.31132394 0.32862216 0.08790119
-0.27484798 0.19789234 -0.054370943 -0.123322815 -0.018801773 0.3349704 0.21424846 0.4208212
00000000: b674 103e 1598 73be eccf 45be 0344 523e
00000010: 2c6a 493e 75ab 1e3e b397 32be ae5f 08bf
00000020: d600 9f3e 4031 90be 8563 e9be b41d 0cbe
00000030: 26eb cc3e 8056 6c3d bcfa 943e 40b1 c93d
00000040: 3784 1e3e a7e2 f53e f45d cfbd 7703 5f3e
00000050: 3a2e c2bd bf44 a43d bbad 9b3e a62a 13bf
00000060: 4a81 53be f172 f03d 05a2 b03c e78b 7e3e
00000070: 9b95 95bd a217 c1bd f33d 673d eb12 aa3d
00000080: 2c9a 85be bc06 af3e c4df a43d 4eb8 c2bc
00000090: 3b5d 2b3e ab67 a4be 0ba7 1b3e d1bb 05bf
000000a0: 3b89 d0be f4b0 25be 10cf 72bd 1816 2bbe
000000b0: 5078 9dbd cb90 4bbd d2c9 abbd 3030 a03e
000000c0: 3730 833e bada 903e ffe5 a8be c41b 73be
000000d0: 27bb 20be 2db4 c53c ed56 d13e 3a9c 973e
000000e0: 7790 aebc 42eb 753e 5705 ce3e 75d1 903e
000000f0: 6e82 ca3e 0018 bcbe 4bfb 85be 5aa7 c4be
00000100: 1ed2 af3d 2136 9abd a196 09bf 9fa2 30be
00000110: 0f10 903e a139 813e 15ce a1bd ca77 42bd
00000120: 013b 643e 63a1 ce3e 39a3 4f3d 6c8b d9bd
00000130: 4dec 12be 63f8 d73e c06f a13d fb8a 3bbf
00000140: 33bd 813e 6f90 173e 2acb 023e 51d0 9fbd
00000150: 40ef 533e 6336 8e3e 32c2 663d f1b5 5abd
00000160: 6727 adbe ca57 6dbe a1e6 b3be a027 1abe
00000170: 115b 5d3e 953f f8bd c51d 8e3d 0623 df3e
00000180: b3eb 983d 333e 033e 55c0 e9bd d309 7abe
00000190: abe2 1dbe b954 afbe 1feb 7b3e 057e 743e
000001a0: 2188 933e 2c1d d6bd db9d 47bd 6cee 51bc
000001b0: 7297 e6be 5abc 333d afd8 f03c 3a24 6fbd
000001c0: 7860 d53d d723 3fbe 62a2 a2bd b3c8 253e
000001d0: c359 853e 8b96 d13e 7456 a83d dbe8 82be
000001e0: f612 3dbe d80e c73d 245d d43e 3ff8 be3e
000001f0: 7a38 0cbd 0afb bb3e 5e19 f73e 375a f9bb
00000200: 9cfa b43e daeb 6dbe a9ff 003e eeae 33bd
00000210: e8fa bb3b 4108 0ebe fd4a d9be da5a f43c
00000220: f8ed 8abd 49a8 9dbd 8574 9dbd 84c2 69be
00000230: 7715 ce3d cfc7 1d3e 0eec 603c 9aa6 f63e
00000240: 52f2 963e bb32 8abe 5e6b 5cbe 45fb 84be
00000250: e4e8 febd 824a 61be 86d4 f4bc 8a7e 123d
00000260: fc3a 32be 2527 a03e dedf 71be a545 bcbe
00000270: 0d00 a93e bcd9 963e e3a0 5fbd 1775 703e
00000280: 3bcc 973e b1ea c6be 486f 74be 0159 eabe
00000290: 29e4 ce3d f090 b73e 6e9b 16bc 4ac2 ef3d
000002a0: 0db8 cd3e ebbb 473d 4a04 66be b6dd 073e
000002b0: 7c3f 18be 9c84 073e cdcb b13e fb35 00be
000002c0: 1eac 943e b9dd a0be 3d18 fa3d 5982 803d
000002d0: 44f5 21be 3971 04be 2331 9bbc 79c4 0e3e
000002e0: baf8 033c a5dc 90bc ed1c 663e d70d c73d
000002f0: e078 783e c41f 91bc 0667 80bd b270 673e
00000300: d0d3 96be 1fcc db3d 314d d53d 22e7 87bd
00000310: 7894 83be d846 12be 4082 943e 539e 983e
00000320: b0a8 5fbe bdeb 5f3e 6be2 393d ede1 083e
00000330: b521 8e3d 07bf 82ba 5466 b03e 2cfc 36be
00000340: 7dd6 643e 671b 1d3d 9e3d 93bd cb7b 4e3e
00000350: 2c76 b4bd 56c3 7d3e cb5c 613e fc45 2b3e
00000360: 6faa 853e f9fe bc3e daa5 9ebd f03c bebd
00000370: 5021 92be b45a 6cbd 55ac 9ebd 75c5 b1be
00000380: c80a 90bd ecdb 0fbe a51b 353e 0e0c c3be
00000390: 6ea5 2dbe 2d5f 7a3e 4897 543e 20e4 8fbe
000003a0: 654a 4fbe b062 20be 0d17 b73e 5f2c 8d3e
000003b0: 4fd3 a4be cf7a adbe 19f6 083f 549e 54be
000003c0: 9f6e 1abf edcc 3fbb f73a 67be 4012 643e
000003d0: 5624 86bd da65 9fbe 2a41 a83e 8a05 b43d
000003e0: e0b8 8cbe 4aa4 4a3e 11b4 5ebd ac90 fcbd
000003f0: 2d06 9abc 3e81 ab3e f363 5b3e e075 d73e

network.1.weight f4 [256]
0.78423893 1.3597747 1.6932817 0.7768243 1.0558406 1.3455029 1.6454235 1.3519053
0.8471473 1.1599996 1.3387892 1.7004342 0.74043524 0.94958204 0.94588876 0.6779473
0.8986591 0.8327217 1.0114083 0.7825794 1.5463446 0.9719908 1.007973 1.752201
2.0756881 0.84160405 1.0728867 0.8485457 1.3344598 1.5927819 0.8235691 0.6740862
0.98676646 0.9815677 1.0028704 1.0608525 0.7268094 1.431042 1.2374554 1.5145023
1.6846964 1.0029491 1.1038173 1.6352324 0.9411293 1.2158632 0.66623396 0.85697174
0.8782716 0.87883765 1.6508596 1.220967 1.178765 0.9711592 0.910276 0.8355771
1.0903945 1.1600848 0.7926736 0.6395253 0.68707913 1.7468084 1.3553456 2.152975
0.7850772 0.91785055 1.5932884 1.115582 0.9935834 0.85360366 1.3539221 1.0731624
0.9465625 1.0195841 0.70386666 1.4788778 1.3900635 1.0207586 1.4828101 1.7300053
0.54119915 0.77518696 1.044043 1.1156757 0.83784455 0.7677213 1.1418512 1.0139852
1.6734025 1.5984085 1.7706587 1.3039614 0.8019532 1.0523647 1.3470501 0.8070556
0.78256476 1.1266488 1.1368535 0.9555208 1.7927507 1.4473867 0.75112003 1.2565036
0.7132298 1.0116891 0.9097922 0.9996271 1.6983762 0.56392115 0.67313325 0.76691234
0.9268503 1.4366962 0.936378 0.9199089 0.73489326 0.8381021 0.82681113 1.858052
1.2031642 0.6969368 0.9469003 0.731208 0.81687963 0.88345844 0.9768663 0.77159274
1.1532056 0.8106626 0.89923614 1.1422865 1.0648056 1.2447869 1.7010291 0.8729661
0.84189916 0.9253905 0.68740594 1.0235813 0.9986568 0.85582817 1.5435797 0.5531127
0.95792943 1.0604426 1.0105779 2.150962 1.1287518 0.8739441 0.8681363 0.5535111
0.6805561 0.77867764 1.7286419 1.7098923 1.004597 0.97168005 0.69313824 0.83566356
1.008471 1.4556227 2.10261 1.6553565 2.349414 0.9352405 1.1161692 1.2677757
0.8409018 0.81614023 1.3829788 0.95288146 1.4207875 0.5372893 0.6752637 0.85065514
0.7232204 2.0587733 0.6628995 0.84795886 1.1739521 0.71537715 0.49832192 0.9964866
0.6626554 1.163241 0.43447006 0.6237777 1.0917549 1.1125579 1.7212175 0.7593951
2.2906811 0.91106534 1.0911434 1.7381881 1.2361166 1.1357336 0.79539376 1.0400186
2.0283284 0.82457525 1.2001923 0.7732105 0.854563 0.833084 0.79881865 1.1269002
0.5203999 0.70690376 0.89363796 0.9801751 1.970236 0.7350692 0.6658807 0.8825262
0.7500651 0.54199773 0.8776092 1.4680177 1.656247 0.9613593 1.4813013 0.9970365
1.7020215 0.7716614 0.85299546 2.18038 1.356808 1.009906 1.1127069 1.3273009
1.2165613 1.5987064 0.6231474 1.0533408 1.777697 1.3223556 0.8476119 1.2897898
1.8394023 0.68862635 1.5921216 0.86089694 1.2251735 1.9139793 0.8439136 0.5541558
1.1774026 0.6109653 1.2002888 0.7850007 0.80723625 0.66123354 0.7122921 0.6309105
00000000: e2c3 483f 190d ae3f 74bd d83f f5dd 463f
00000010: c925 873f 7039 ac3f 3d9d d23f 3c0b ad3f
00000020: a5de 583f de7a 943f 725d ab3f d4a7 d93f
00000030: 2a8d 3d3f cf17 733f c425 723f f48d 2d3f
00000040: 860e 663f 402d 553f d475 813f 2057 483f
00000050: 9fee c53f 64d4 783f 4205 813f 1f48 e03f
00000060: 13d8 0440 5d73 573f 5a54 893f 4a3a 593f
00000070: 94cf aa3f 47e0 cb3f 6dd5 523f ea90 2c3f
00000080: ba9c 7c3f 0548 7b3f 0f5e 803f 04ca 873f
00000090: 2e10 3a3f 622c b73f f064 9e3f 36db c13f
000000a0: 22a4 d73f a360 803f e349 8d3f 4c4f d13f
000000b0: daed 703f 68a1 9b3f 4f8e 2a3f 8062 5b3f
000000c0: 68d6 603f 81fb 603f 5e4f d33f a648 9c3f
000000d0: c6e1 963f e49d 783f d907 693f 61e8 553f
000000e0: 0c92 8b3f a97d 943f a8ec 4a3f eeb7 233f
000000f0: 6be4 2f3f 6b97 df3f f77b ad3f 58ca 0940
00000100: d2fa 483f 41f8 6a3f e0f0 cb3f 64cb 8e3f
00000110: 7b5b 7e3f c585 5a3f 524d ad3f 635d 893f
00000120: ec51 723f bb81 823f 9b30 343f de4b bd3f
00000130: 9aed b13f 38a8 823f b9cc bd3f d070 dd3f
00000140: 078c 0a3f a772 463f 33a3 853f 76ce 8e3f
00000150: fb7c 563f 6289 443f 2e28 923f 44ca 813f
00000160: 0e32 d63f a698 cc3f f2a4 e23f 35e8 a63f
00000170: ce4c 4d3f e3b3 863f 236c ac3f 329b 4e3f
00000180: 2a56 483f 0736 903f 6a84 913f 039d 743f
00000190: db78 e53f f843 b93f 6749 403f 1cd5 a03f
000001a0: 3a96 363f 077f 813f 24e8 683f 90e7 7f3f
000001b0: 6464 d93f 235d 103f 7652 2c3f 5e54 443f
000001c0: 1046 6d3f a9e5 b73f 78b6 6f3f 267f 6b3f
000001d0: f721 3c3f dc8d 563f e5a9 533f a6d4 ed3f
000001e0: 4901 9a3f 736a 323f 0f68 723f 7330 3b3f
000001f0: 061f 513f 552a 623f e913 7a3f 1a87 453f
00000200: 3e9c 933f 9687 4f3f 5734 663f 7236 923f
00000210: 8d4b 883f 2d55 9f3f 52bb d93f b57a 5f3f
00000220: b486 573f 64e6 6c3f d6f9 2f3f b604 833f
00000230: f9a7 7f3f 8e17 5b3f 0594 c53f cb98 0d3f
00000240: dd3a 753f 95bc 873f 9e5a 813f 5da9 0940
00000250: f07a 903f cdba 5f3f 2e3e 5e3f e7b2 0d3f
00000260: ed38 2e3f 6b57 473f 2344 dd3f c0dd da3f
00000270: a296 803f 06c0 783f 8271 313f 0cee 553f
00000280: 9415 813f d851 ba3f 2a91 0640 b9e2 d33f
00000290: cd5c 1640 ec6b 6f3f a2de 8e3f 7946 a23f
000002a0: 5745 573f 91ee 503f 7305 b13f 0af0 733f
000002b0: 5ddc b53f cb8b 093f 15de 2c3f 89c4 593f
000002c0: f924 393f f1c2 0340 c8b3 293f d513 593f
000002d0: 1044 963f f522 373f 0d24 ff3e bf19 7f3f
000002e0: c9a3 293f 15e5 943f dc72 de3e e5af 1f3f
000002f0: a0be 8b3f 4c68 8e3f db50 dc3f b867 423f
00000300: 859a 1240 943b 693f 96aa 8b3f f37c de3f
00000310: 1239 9e3f b85f 913f ed9e 4b3f 541f 853f
00000320: 22d0 0140 5d17 533f e79f 993f 20f1 453f
00000330: a4c4 5a3f fe44 553f 617f 4c3f 443e 903f
00000340: ee38 053f a5f7 343f 75c5 643f c1ec 7a3f
00000350: b130 fc3f 7f2d 3c3f 2877 2a3f 3ded 613f
00000360: 4404 403f 5dc0 0a3f ffaa 603f 01e8 bb3f
00000370: e7ff d33f a51b 763f 489b bd3f c93d 7f3f
00000380: d7db d93f 9a8b 453f e95d 5a3f 598b 0b40
00000390: e2ab ad3f 9a44 813f 2e6d 8e3f ffe4 a93f
000003a0: 48b8 9b3f 69a2 cc3f 9786 1f3f dfd3 863f
000003b0: 938b e33f f342 a93f 18fd 583f d517 a53f
000003c0: 8971 eb3f d149 303f a4ca cb3f be63 5c3f
000003d0: 7cd2 9c3f 46fd f43f b90a 583f 28dd 0d3f
000003e0: 21b5 963f 3968 1c3f 10a3 993f cef5 483f
000003f0: 09a7 4e3f 9a46 293f c658 363f 5a83 213f

network.1.bias f4 [256]
-0.4486228 -0.09366526 0.15332289 -0.26244786 -0.34861115 -0.42970634 0.27350459 -0.2936016
-0.3228349 -0.39996123 -0.13811556 0.056052335 -0.30895773 -0.35106266 -0.3158676 -0.40558177
-0.6086445 -0.38448876 -0.31898466 -0.5118924 -0.23427932 -0.42073786 -0.31688517 0.008687849
0.24876177 -0.5223428 -0.45507252 -0.36454844 -0.18335834 -0.0001137281 -0.70224345 -0.4005992
-0.43638974 -0.3305848 -0.6739371 -0.25766692 -0.3198532 -0.32164595 -0.68716264 -0.08897845
-0.18510611 -0.40127167 -0.26011524 -0.19668119 -0.3640622 -0.29081488 -0.7556395 -0.34241694
-0.53395957 -0.29872867 -0.09654895 -0.5969465 -0.38448167 -0.39234072 -0.2817478 -0.26131505
-0.3743895 -0.32770148 -0.5506292 -0.3560302 -0.4322596 0.47320712 -0.35346615 0.0693166
-0.3736873 -0.2521293 -0.06350346 -0.30604562 -0.29874846 -0.45662206 -0.25217605 -0.2761569
-0.50996286 -0.29314813 -0.49111754 -0.19830038 -0.22344312 -0.36180195 -0.56748015 0.043527167
-0.41011328 -0.3187109 -0.34257928 -0.19326718 -0.30666196 -0.3259021 -0.43958792 -0.38810313
-0.02707722 -0.052363496 0.4243745 -0.23436086 -0.3217729 -0.61067384 -0.49115044 -0.33309305
-0.3170807 -0.3075607 -0.33943895 -0.37233412 -0.33802584 -0.16597785 -0.4651695 -0.3938327
-0.46576518 -0.43755567 -0.38585672 -0.5018704 -0.039813686 -0.45520908 -0.7410894 -0.42364472
-0.4374894 -0.06927471 -0.30232015 -0.48798138 -0.51462793 -0.45944253 -0.42148963 -0.08457166
-0.17563632 -0.37526342 -0.31969917 -0.49948615 -0.27279672 -0.5457539 -0.36622313 -0.53136224
-0.26151043 -0.48056382 -0.731222 -0.38392496 -0.5014963 -0.0670244 -0.23868585 -0.41271433
-0.697053 -0.32411584 -0.40240732 -0.30404818 -0.35772127 -0.4418015 -0.2611023 -0.5144652
-0.37745094 -0.47192678 -0.3355301 0.017890917 -0.40975076 -0.30494383 -0.6383975 -0.59666663
-0.5178715 -0.39084157 -0.1740915 -0.029214395 -0.3972246 -0.29398412 -0.43000543 -0.36581376
-0.35774463 -0.17747287 -0.02455304 -0.119538434 -0.20230515 -0.41648483 -0.34325513 -0.16994582
-0.635909 -0.44941533 -0.07321992 -0.5060479 -0.19025889 -0.50561917 -0.26472983 -0.52591115
-0.30001673 0.2864657 -0.40572652 -0.37403458 -0.3775244 -0.5041813 -0.74185354 -0.3914615
-0.41558334 -0.13388292 -0.52641207 -0.45819288 -0.25533044 -0.3437536 -0.25795305 -0.35207504
0.03701338 -0.4939258 -0.36382303 -0.15155303 -0.2539941 -0.12269707 -0.33318886 -0.27082202
0.1715358 -0.25914532 -0.16784625 -0.49314564 -0.47453165 -0.41973597 -0.6400476 -0.13965061
-0.38314515 -0.3247228 -0.38825247 -0.31785256 0.034911264 -0.47337034 -0.39359587 -0.36107427
-0.28428403 -0.29530334 -0.43000653 -0.16742 -0.10361929 -0.35304588 -0.31208315 -0.3733371
-0.31762588 -0.6759721 -0.8035532 0.34225607 -0.2952905 -0.5316877 -0.3529799 -0.2797495
-0.15858148 -0.40786093 -0.5596856 -0.41570866 -0.031179765 -0.15927984 -0.3948209 -0.30060315
0.08248004 -0.64351606 -0.017530456 -0.6716841 -0.07625685 0.047306098 -0.32260576 -0.48367962
-0.36458066 -0.48880088 -0.16901545 -0.37367845 -0.581012 -0.56500775 -0.39168897 -0.5714869
00000000: e3b1 e5be 92d3 bfbd ad00 1d3e 915f 86be
00000010: 297d b2be 7802 dcbe cb08 8c3e f352 96be
00000020: 9e4a a5be b8c7 ccbe 2a6e 0dbe 2297 653d
00000030: b52f 9ebe 7cbe b3be 66b9 a1be 6aa8 cfbe
00000040: 20d0 1bbf b6db c4be f551 a3be 610b 03bf
00000050: ebe6 6fbe f46a d7be c63e a2be 7b57 0e3c
00000060: 68bb 7e3e 42b8 05bf 44ff e8be 18a6 babe
00000070: 4ac2 3bbe 4f81 eeb8 3ac6 33bf 571b cdbe
00000080: 7a6e dfbe 6942 a9be 2487 2cbf ebec 83be
00000090: ccc3 a3be c7ae a4be e4e9 2fbf 553a b6bd
000000a0: 758c 3dbe 7b73 cdbe d32d 85be cb66 49be
000000b0: 5c66 babe b0e5 94be 9771 41bf 4651 afbe
000000c0: 93b1 08bf f7f2 98be 75bb c5bd 7cd1 18bf
000000d0: c8da c4be e2e0 c8be 3f41 90be 16cb 85be
000000e0: fbaf bfbe 7dc8 a7be 09f6 0cbf 9749 b6be
000000f0: 2151 ddbe 3448 f23e 84f9 b4be ddf5 8d3d
00000100: f153 bfbe 1717 81be 1a0e 82bd 03b2 9cbe
00000110: 8ff5 98be 5eca e9be 381d 81be 7064 8dbe
00000120: ed8c 02bf 8317 96be c273 fbbe 410f 4bbe
00000130: 46ce 64be 1b3e b9be 6146 11bf 8b49 323d
00000140: 5efa d1be 132e a3be 8d66 afbe d5e7 45be
00000150: cc02 9dbe a4dc a6be ab11 e1be 74b5 c6be
00000160: 0cd1 ddbc 1b7b 56bd 9d47 d93e 4bfc 6fbe
00000170: 6bbf a4be 1f55 1cbf 1278 fbbe 2c8b aabe
00000180: 6758 a2be 9978 9dbe f1ca adbe 94a2 bebe
00000190: b911 adbe 19f6 29be b22a eebe 71a4 c9be
000001a0: c678 eebe 4c07 e0be 038f c5be 947a 00bf
000001b0: ad13 23bd 2a11 e9be 09b8 3dbf f6e7 d8be
000001c0: 9cfe dfbe e6df 8dbd b5c9 9abe b2d8 f9be
000001d0: a8be 03bf 0d3c ebbe 7dcd d7be e833 adbd
000001e0: 02da 33be 8722 c0be 9caf a3be a6bc ffbe
000001f0: 03ac 8bbe 87b6 0bbf 9981 bbbe 5b07 08bf
00000200: b2e4 85be 760c f6be 5d31 3bbf d091 c4be
00000210: 1062 00bf 1744 89bd 106a 74be 4b4f d3be
00000220: 1172 32bf 83f2 a5be 5508 cebe 34ac 9bbe
00000230: 3e27 b7be ce33 e2be 33af 85be feb3 03bf
00000240: 4041 c1be 63a0 f1be 9aca abbe f98f 923c
00000250: daca d1be 9921 9cbe 056e 23bf 25bf 18bf
00000260: 3a93 04bf 631c c8be 0b45 32be 0753 efbc
00000270: 0661 cbbe 1685 96be ac29 dcbe f14b bbbe
00000280: 4e2a b7be 73bb 35be 7523 c9bc 91d0 f4bd
00000290: 1529 4fbe 803d d5be 23bf afbe 4706 2ebe
000002a0: efca 22bf c419 e6be 53f4 95bd 5b8c 01bf
000002b0: 3ad3 42be 4270 01bf ab8a 87be 1da2 06bf
000002c0: cb9b 99be a2ab 923e 63bb cfbe 7681 bfbe
000002d0: e14a c1be 0712 01bf 1dea 3dbf a46d c8be
000002e0: 57c7 d4be 9b18 09be f1c2 06bf 4298 eabe
000002f0: acba 82be 7900 b0be 6c12 84be 2e43 b4be
00000300: 589b 173d d8e3 fcbe 0347 babe b830 1bbe
00000310: 840b 82be 9a48 fbbd bb97 aabe 2fa9 8abe
00000320: 15a7 2f3e b2ae 84be e3df 2bbe 967d fcbe
00000330: d0f5 f2be a2e7 d6be 29da 23bf 9200 0fbe
00000340: 9a2b c4be 1142 a6be 07c9 c6be 92bd a2be
00000350: 1dff 0e3d 995d f2be 6685 c9be bade b8be
00000360: ad8d 91be 0032 97be d129 dcbe 2670 2bbe
00000370: 5a36 d4bd 6ec2 b4be 5dc9 9fbe 0a26 bfbe
00000380: dc9f a2be 820c 2dbf aab5 4dbf 303c af3e
00000390: 5130 97be af1c 08bf c8b9 b4be 543b 8fbe
000003a0: 2f63 22be 26d3 d0be 8e47 0fbf c4d7 d4be
000003b0: b56c ffbc 411a 23be f725 cabe a8e8 99be
000003c0: 4ceb a83d 78bd 24bf 089c 8fbc 7df3 2bbf
000003d0: 8d2c 9cbd 0ac4 413d 952c a5be dba4 f7be
000003e0: 51aa babe 1c44 fabe 6312 2dbe c852 bfbe
000003f0: 34bd 14bf 59a4 10bf 758b c8be f74c 12bf

network.4.weight f4 [128, 256]
-0.36087072 -0.06563379 0.06939621 -0.05186197 0.16798922 0.08761516 0.06724964 0.1613081
-0.06312311 -0.03131794 -0.07743412 -0.25044408 -0.14005762 0.03165455 0.114003494 -0.0074678124
-0.19042306 -0.12495644 -0.6966672 0.18625665 -0.077811964 -0.013470523 -0.19518268 0.32637233
-0.11680628 -0.22184019 0.18120039 -0.042084485 -0.07603398 0.21424349 -0.12578335 -0.061874803
0.028621513 -0.06917143 0.088412754 -0.026332237 -0.031296268 -0.052256107 -0.059217293 0.015232649
0.3767928 -0.09960572 -0.04746886 -0.2508574 0.121226765 0.06673818 -0.39106584 0.11569154
0.056232724 0.014958586 0.28913498 0.15549609 0.1388067 -0.056568883 -0.060828526 -0.12253739
0.016527236 0.075769566 -0.08876347 -0.023335835 -0.05349908 -0.023191346 0.36726967 0.33901113
-0.055080876 0.019173242 0.3191382 -0.3114577 -0.22459349 -0.008914903 0.1611561 0.042382106
0.04607862 0.041054554 -0.040469132 -0.00792178 -0.4757582 0.020078141 0.21385716 -0.23790199
0.0058690803 0.013660563 -0.061788563 -0.0498643 0.017460605 -0.18583792 -0.14849247 0.01050507
0.24568611 -0.18828295 -0.13151777 -0.31207454 0.10090481 0.15750954 0.19906884 0.0751159
-0.056511987 0.012286311 -0.011245016 -0.09582372 0.16179393 -0.076586194 -0.10976615 -0.05887024
-0.13718583 0.040242072 0.0967756 0.005900491 -0.27835917 -0.07749368 0.11014197 -0.14619696
0.015953125 -0.38505986 -0.31882772 -0.009196496 -0.068648316 0.20733911 -0.003411415 0.19151218
-0.23971182 0.076649144 -0.15978412 0.18560323 -0.018965324 0.056895964 -0.03353532 -0.010699655
-0.065441236 -0.027419902 -0.17554748 -0.12717363 0.097582124 0.17002831 -0.51535106 -0.52475905
0.038547795 0.043988563 -0.12477402 0.078812644 0.051735666 0.040889245 0.14487582 0.08817077
-0.21884048 -0.4134758 0.20200548 -0.2439798 -0.19408733 -0.11998557 0.24865532 -0.15201116
-0.07924635 -0.011519335 0.21669674 0.21829806 -0.09014401 -0.13414633 -0.14222401 -0.24950111
0.0151272165 -0.2315241 -1.1568213 0.15782683 0.046465285 0.15477656 0.14462799 -0.2949697
-0.12740225 0.11450714 -0.11298067 0.026453989 0.081057236 0.035238806 -0.014142611 0.026514834
-0.10615488 -0.39451635 -0.057495046 -0.0037155475 -0.041150372 0.03887805 0.068183236 0.17755051
-0.12889513 -0.22923686 -0.0074181124 -0.092070706 -0.24109855 0.07443241 0.17330383 -0.0807219
-0.35640335 0.14428404 -0.5911102 0.08523924 -0.5882847 0.16241466 -0.08549295 0.05912203
-0.36491665 -0.040766563 -0.16970474 0.11211842 -0.1097781 -0.28897622 0.22406468 -0.0019884629
-0.031902477 0.020085594 -0.34568653 -0.2594607 -0.0339099 -0.22454914 -0.16836083 0.02195671
0.039444964 -0.2080551 -0.37999913 0.25480714 0.15896265 -0.2505981 -0.20877409 0.13041157
-0.005205812 -0.14020275 -0.09193409 -0.052325755 0.0293804 -0.3783121 0.083498195 0.10276595
0.05313038 -0.29962558 -0.10217343 0.079728305 -0.15140244 -0.38316956 0.044812992 0.08227019
-0.17341147 0.015431104 -0.2885209 -0.10728697 -0.132705 -0.1429459 -0.04329774 -0.062553294
-0.05958471 0.09630308 0.08800621 -0.07616209 -0.06978474 -0.07204844 -0.06463659 -0.090139516
00000000: 0cc4 b8be 026b 86bd 9a1f 8e3d 386d 54bd
00000010: 5e05 2c3e 946f b33d 2eba 893d f32d 253e
00000020: b046 81bd 3e47 00bd c895 9ebd 353a 80be
00000030: 446b 0fbe 34a8 013d aa7a e93d 8db4 f4bb
00000040: 43fe 42be 29e9 ffbd c858 32bf 10ba 3e3e
00000050: e15b 9fbd 78b3 5cbc f8dd 47be 461a a73e
00000060: 2238 efbd 132a 63be 988c 393e c860 2cbd
00000070: b4b7 9bbd a562 5b3e 5acd 00be 6f70 7dbd
00000080: aa77 ea3c c0a9 8dbd bf11 b53d b4b6 d7bc
00000090: 8430 00bd 800a 56bd d58d 72bd 5c92 793c
000000a0: fcea c03e 15fe cbbd b56e 42bd 6270 80be
000000b0: bd45 f83d 07ae 883d c839 c8be b0ef ec3d
000000c0: 4954 663d db14 753c 8009 943e 5e3a 1f3e
000000d0: 5823 0e3e c6b4 67bd 5527 79bd e2f4 fabd
000000e0: 2064 873c 132d 9b3d 9fc9 b5bd cb2a bfbc
000000f0: da21 5bbd c7fb bdbc c50a bc3e de92 ad3e
00000100: 7c9c 61bd 3411 9d3c 1566 a33e 6277 9fbe
00000110: d6fb 65be d00f 12bc 1b06 253e dc98 2d3d
00000120: efbc 3c3d d228 283d f6c2 25bd 5bca 01bc
00000130: 9496 f3be ea7a a43c 5ffd 5a3e 949c 73be
00000140: 6a51 c03b 8ed0 5f3c 0116 7dbd 823e 4cbd
00000150: 8b09 8f3c 4c4c 3ebe 690e 18be 751d 2c3c
00000160: 2495 7b3e 3fcd 40be 98ac 06be 3cc8 9fbe
00000170: 2ea7 ce3d 2e4a 213e b4d8 4b3e 5dd6 993d
00000180: 1d79 67bd 864c 493c 043d 38bc 3a3f c4bd
00000190: 4fad 253e 39d9 9cbd 13cd e0bd ec21 71bd
000001a0: 717a 0cbe dfd4 243d 4932 c63d e858 c13b
000001b0: 1885 8ebe 02b5 9ebd 1d92 e13d a8b4 15be
000001c0: 21b0 823c 9126 c5be 633d a3be e6ac 16bc
000001d0: 7d97 8cbd b450 543e 0c92 5fbb c51b 443e
000001e0: 0477 75be 3afa 9c3d 739e 23be c60e 3e3e
000001f0: 2b5d 9bbc be0b 693d 555c 09bd 9b4d 2fbc
00000200: 0e06 86bd b49f e0bc b8c2 33be ce39 02be
00000210: 23d9 c73d e71b 2e3e 0cee 03bf 9c56 06bf
00000220: 4be4 1d3d 5a2d 343d 8589 ffbd 8668 a13d
00000230: c7e8 533d 7b7b 273d 545a 143e e092 b43d
00000240: b817 60be 1ab3 d3be 86da 4e3e d7d5 79be
00000250: d4be 46be ffba f5bd 809f 7e3e d0a8 1bbe
00000260: e94b a2bd 98bb 3cbc c0e5 5d3e 8789 5f3e
00000270: 6c9d b8bd a85d 09be 2ca3 11be 387d 7fbe
00000280: 25d8 773c a714 6dbe b812 94bf 5b9d 213e
00000290: 6252 3e3d bf7d 1e3e 5c19 143e 4506 97be
000002a0: bc75 02be b882 ea3d 6962 e7bd 09b6 d83c
000002b0: 5601 a63d 9156 103d 69b6 67bc a335 d93c
000002c0: bb67 d9bd 0cfe c9be ed7f 6bbd 8b80 73bb
000002d0: 4b8d 28bd 973e 1f3d a7a3 8b3d cdcf 353e
000002e0: 16fd 03be 11bd 6abe a313 f3bb 918f bcbd
000002f0: 8ae2 76be 0570 983d 8f76 313e 8651 a5bd
00000300: 807a b6be 32bf 133e 0053 17bf e991 ae3d
00000310: d399 16bf 0750 263e ee16 afbd f129 723d
00000320: 5bd6 babe d7fa 26bd 14c7 2dbe 589e e53d
00000330: 57d3 e0bd b1f4 93be 3671 653e df50 02bb
00000340: 2cac 02bd 8b8a a43c d3fd b0be 08d8 84be
00000350: 1be5 0abd 36f0 65be c866 2cbe 8fde b33c
00000360: 0b91 213d 650c 55be 3f8f c2be 1576 823e
00000370: 1bc7 223e 654e 80be e0c8 55be 9c8a 053e
00000380: 8495 aabb 4f91 0fbe f147 bcbd 8853 56bd
00000390: 2aaf f03c 20b2 c1be 1a01 ab3d f476 d23d
000003a0: 3e9f 593d 8668 99be 4e40 d1bd 9848 a33d
000003b0: 3e09 1bbe cd2e c4be d48d 373d 467d a83d
000003c0: c792 31be bed2 7c3c 03b9 93be 45b9 dbbd
000003d0: d2e3 07be 6960 12be f958 31bd f11b 80bd
000003e0: 190f 74bd 8d3a c53d 9a3c b43d dffa 9bbd
000003f0: 4deb 8ebd 228e 93bd 3060 84bd 119b b8bd

network.4.bias f4 [128]
-0.10508632 -0.06180247 -0.18138924 0.19612391 -0.08884443 0.13895258 0.027901754 0.09873525
0.04183648 0.08969659 0.13318445 -0.09199438 0.103642985 -0.11075175 0.071304746 -0.014351848
0.07937725 0.102654636 0.06982966 0.0693078 -0.075989224 0.11731583 -0.052325025 0.10971562
-0.03445047 0.13008818 0.12279198 -0.0924682 -0.17324312 0.1786895 0.061848275 0.015861088
-0.028015854 0.091835484 0.06928373 0.07395579 0.09657121 0.0606559 -0.013900846 0.10569255
0.19937356 0.061214816 -0.10844133 0.09788732 0.12493213 0.09240026 -0.023676237 0.079314336
0.11854497 -0.0047496124 0.116078466 0.016460406 -0.070753135 -0.006621981 0.0780648 0.11811453
-0.11984401 0.023911912 -0.031529766 0.15057905 0.21407695 -0.025675558 -0.004351449 0.090618365
-0.05559286 0.13605781 0.056360077 0.09093748 0.0048417035 0.018932102 -0.03480658 -0.016443161
0.051526472 -0.07192968 -0.10704897 -0.022879282 0.08314198 0.09277502 0.15922256 -0.0015902783
-0.076809295 0.08042634 -0.031152628 0.006226676 -0.1033986 -0.05783714 0.040652893 -0.119005665
-0.050834414 0.0614746 -0.07136241 0.042546622 0.14537588 0.010381984 0.04392464 0.066535994
-0.0963541 -0.09092745 0.08904502 0.005051916 0.05978866 -0.030942852 -0.026287083 -0.019016638
0.05899228 0.057670075 -0.08394054 0.1033797 0.004305158 -0.05511642 -0.045507852 -0.0837255
0.10436148 0.0049804593 -0.0044022156 0.10392945 0.13509531 -0.13986115 0.12427182 0.012382643
-0.0022291641 0.20552626 0.21142596 0.0041446835 0.07794412 -0.08366007 0.027214529 0.03452951
00000000: 7f37 d7bd 9624 7dbd 1abe 39be b5d4 483e
00000010: 12f4 b5bd 9649 0e3e 3892 e43c b535 ca3d
00000020: bb5c 2b3d d9b2 b73d 8161 083e 8d67 bcbd
00000030: c642 d43d d0d1 e2bd 3908 923d 0324 6bbc
00000040: 8a90 a23d 983c d23d da02 8f3d 3ff1 8d3d
00000050: 3da0 9bbd 4843 f03d c452 56bd 95b2 e03d
00000060: f01b 0dbd d635 053e 5d7a fb3d f85f bdbd
00000070: a566 31be 61fa 363e 9e54 7d3d 1def 813c
00000080: 8181 e5bc 3e14 bc3d a1e4 8d3d 2276 973d
00000090: 20c7 c53d 5272 783d 60c0 63bc 5675 d83d
000000a0: 9528 4c3e 63bc 7a3d 7d16 debd 2679 c83d
000000b0: 6bdc ff3d 593c bd3d abf4 c1bc 8e6f a23d
000000c0: b5c7 f23d a3a2 9bbb 8cba ed3d f9d7 863c
000000d0: 05e7 90bd 34fd d8bb 70e0 9f3d 08e6 f13d
000000e0: c770 f5bd eae2 c33c 5b25 01bd 6531 1a3e
000000f0: fd36 5b3e 8c55 d2bc 9a96 8ebb 1f96 b93d
00000100: 57b5 63bd bd52 0b3e d3d9 663d 6e3d ba3d
00000110: 27a7 9e3b 7f17 9b3c 5891 0ebd cfb3 86bc
00000120: 6c0d 533d de4f 93bd 7e3c dbbd 556d bbbc
00000130: 5846 aa3d d400 be3d 3d0b 233e e370 d0ba
00000140: 314e 9dbd 91b6 a43d cc33 ffbc 2509 cc3b
00000150: a5c2 d3bd a3e6 6cbd a683 263d 3eb9 f3bd
00000160: bf37 50bd cacc 7b3d 7526 92bd 5e45 2e3d
00000170: 6add 143e 3219 2a3c 53ea 333d 0644 883d
00000180: 4c55 c5bd 2c38 babd 3c5d b63d 8b8a a53b
00000190: f4e4 743d dd7b fdbc 0258 d7bc c8c8 9bbc
000001a0: e4a1 713d 7537 6c3d 05e9 abbd bcb8 d33d
000001b0: 4812 8d3b c1c1 61bd 7166 3abd 4678 abbd
000001c0: 79bb d53d 1f33 a33b 7640 90bb f7d8 d43d
000001d0: 6d56 0a3e c337 0fbe 3982 fe3d 92e0 4a3c
000001e0: 2b17 12bb 7a75 523e 0c80 583e 20d0 873b
000001f0: 2ba1 9f3d f955 abbd 01f1 de3c d16e 0d3d

network.5.weight f4 [128]
1.6669543 1.2745719 1.7342806 0.7003314 1.8003746 0.74186647 1.2413075 1.0257064
1.232573 0.6451642 0.90308833 1.7387043 0.5401185 1.582806 0.8475096 1.4404781
0.807256 0.8215154 0.7044079 0.932959 1.3677604 0.9602114 1.2760508 0.8134211
1.2124594 0.5832268 0.5507158 1.5462476 1.8326494 0.51494485 1.542971 0.9180471
1.3890151 0.6316847 1.2943596 0.8490423 0.770955 0.72740746 1.2171232 1.1085906
0.51149184 0.86559755 1.3164109 0.86721295 0.6216679 1.2195014 1.2588727 0.80485356
0.58569384 1.4968886 0.604458 1.1407852 1.2582306 1.4053569 0.64213735 0.79013896
1.3464422 0.9807805 1.291603 0.79249436 0.5438664 1.865604 1.11962 0.9043527
1.5728139 0.76723087 0.8957438 0.8839488 1.2598147 1.3262105 1.6853758 1.5373794
1.1081297 1.3671025 1.4055517 1.5282266 1.5514319 1.1884952 0.74686784 1.2985998
1.4889514 1.3574024 1.5733051 1.3604902 1.8223563 1.585606 1.3223004 1.4314791
1.4620781 1.0755091 1.5021166 0.8609452 0.6250559 1.384831 0.92104256 0.942664
1.6697702 1.4866121 0.80175567 1.0620663 0.9791633 1.4679279 1.1953726 1.7265986
1.2354404 1.5115572 1.4965087 1.1505215 1.3587601 1.1793897 1.7086858 1.2884359
0.99482405 1.521047 1.6339089 0.8177022 0.5923162 1.5445814 0.6026678 1.0867437
1.4421768 0.52316874 0.6107617 1.2536725 0.9936517 1.7152594 1.5519756 1.557298
00000000: c25e d53f 2c25 a33f e8fc dd3f eb48 333f
00000010: ad72 e63f f6ea 3d3f 2ae3 9e3f 594a 833f
00000020: f4c4 9d3f 7b29 253f cc30 673f dd8d de3f
00000030: 3545 0a3f 6399 ca3f 64f6 583f 9661 b83f
00000040: 54a8 4e3f d54e 523f 1354 343f 67d6 6e3f
00000050: c612 af3f 6ad0 753f a255 a33f 5d3c 503f
00000060: df31 9b3f 5a4e 153f b6fb 0c3f 71eb c53f
00000070: 4194 ea3f 6dd3 033f 1380 c53f 2205 6b3f
00000080: 3fcb b13f 17b6 213f 93ad a53f d65a 593f
00000090: 4f5d 453f 6037 3a3f b1ca 9b3f 4ce6 8d3f
000000a0: 21f1 023f cd97 5d3f 2780 a83f ab01 5e3f
000000b0: a125 1f3f 9f18 9c3f be22 a13f e20a 4e3f
000000c0: 08f0 153f 0c9a bf3f c2bd 1a3f 4005 923f
000000d0: b30d a13f bce2 b33f 1d63 243f 8c46 4a3f
000000e0: 3858 ac3f 6e14 7b3f 3f53 a53f e9e0 4a3f
000000f0: d43a 0b3f 1dcc ee3f b54f 8f3f a983 673f
00000100: f751 c93f 3e69 443f 774f 653f 784a 623f
00000110: 9c41 a13f 44c1 a93f 65ba d73f d9c8 c43f
00000120: 32d7 8d3f 37fd ae3f 1ee9 b33f ee9c c33f
00000130: 5295 c63f 9c20 983f bb32 3f3f 8538 a63f
00000140: f695 be3f 5dbf ad3f 1062 c93f 8b24 ae3f
00000150: f942 e93f 23f5 ca3f 2441 a93f b53a b73f
00000160: 6025 bb3f 48aa 893f 5b45 c03f e866 5c3f
00000170: aa03 203f 2442 b13f 72c9 6b3f 6e52 713f
00000180: 08bb d53f 4e49 be3f dc3f 4d3f caf1 873f
00000190: 72aa 7a3f 10e5 bb3f f801 993f 2f01 dd3f
000001a0: e922 9e3f b57a c13f 998d bf3f 4a44 933f
000001b0: daeb ad3f 3ef6 963f 37b6 da3f 78eb a43f
000001c0: caac 7e3f abb1 c23f ed23 d13f ee54 513f
000001d0: 09a2 173f d8b4 c53f 7048 1a3f 6b1a 8b3f
000001e0: 4099 b83f 63ee 053f e15a 1c3f 5778 a03f
000001f0: f55f 7e3f 9f8d db3f 23a7 c63f 8a55 c73f

network.5.bias f4 [128]
-0.58751935 -0.41366944 -0.48913273 -0.52332073 -0.42282176 -0.2858999 -0.4153729 -0.44923297
-0.4671837 -0.32232693 -0.38636297 -0.40223092 -0.3581845 -0.5097153 -0.5019619 -0.46767002
-0.36800987 -0.3343147 -0.29605505 -0.28860354 -0.7139106 -0.5673462 -0.46223298 -0.47761628
-0.4723476 -0.42655563 -0.34941685 -0.54782826 -0.5288723 -0.42841756 -0.48377687 -0.4153607
-0.46972966 -0.35116312 -0.5088938 -0.47453123 -0.34795222 -0.4005279 -0.45858154 -0.51683956
-0.32799998 -0.35778394 -0.44206676 -0.35846752 -0.37824637 -0.3088489 -0.48477626 -0.41743836
-0.3488413 -0.32166964 -0.33451948 -0.54257274 -0.49903956 -0.5386017 -0.30421016 -0.46781582
-0.45950615 -0.5262294 -0.43052864 -0.48390737 -0.44248542 -0.28567106 -0.43311828 -0.41764578
-0.3805254 -0.48900637 -0.55721164 -0.43178257 -0.28266624 -0.4702387 -0.6303083 -0.39329112
-0.36206806 -0.5197352 -0.45127115 -0.43695492 -0.5179115 -0.26433316 -0.4713615 -0.539462
-0.44395554 -0.43121636 -0.5531091 -0.36153755 -0.54256856 -0.46729496 -0.36169592 -0.41997075
-0.4153927 -0.5253998 -0.41993415 -0.32472834 -0.29195327 -0.49298614 -0.38024706 -0.5393628
-0.42474347 -0.65970844 -0.3587372 -0.3978004 -0.285867 -0.45904607 -0.38059077 -0.4140527
-0.4396321 -0.39731905 -0.48441675 -0.3436135 -0.5008845 -0.34343746 -0.38198176 -0.47505772
-0.34115696 -0.37258855 -0.36672142 -0.56779253 -0.41306412 -0.4315507 -0.28718373 -0.4662161
-0.44827008 -0.37100747 -0.4756603 -0.407298 -0.33865428 -0.4543904 -0.26817513 -0.2799304
00000000: ab67 16bf 7bcc d3be 9b6f fabe 59f8 05bf
00000010: 187c d8be 7961 92be c2ab d4be dd01 e6be
00000020: b432 efbe 0908 a5be 5ed1 c5be 36f1 cdbe
00000030: f563 b7be b47c 02bf 9380 00bf 7272 efbe
00000040: ca6b bcbe 4c2b abbe 8794 97be d8c3 93be
00000050: d8c2 36bf 9a3d 11bf cda9 ecbe 1f8a f4be
00000060: 8bd7 f1be 8065 dabe c4e6 b2be 793e 0cbf
00000070: 2d64 07bf 8c59 dbbe 9ab1 f7be 28aa d4be
00000080: 6880 f0be a7cb b3be dd46 02bf c2f5 f2be
00000090: cb26 b2be fe11 cdbe 33cb eabe 994f 04bf
000000a0: 9def a7be 752f b7be 9356 e2be 0e89 b7be
000000b0: 82a9 c1be 7121 9ebe 9834 f8be 7bba d5be
000000c0: 549b b2be e2b1 a4be 2346 abbe 0ce6 0abf
000000d0: 1d82 ffbe cde1 09bf 6fc1 9bbe 8e85 efbe
000000e0: 6444 ebbe f8b6 06bf 406e dcbe b5c2 f7be
000000f0: 738d e2be 7a43 92be aec1 ddbe abd5 d5be
00000100: 3ad4 c2be 0b5f fabe 6ca5 0ebf 9b12 ddbe
00000110: a1b9 90be 20c3 f0be e25b 21bf 745d c9be
00000120: fc60 b9be 5e0d 05bf 030d e7be 8eb8 dfbe
00000130: d995 04bf ad56 87be 4b56 f1be 2e1a 0abf
00000140: 244e e3be 64c8 dcbe 8f98 0dbf 731b b9be
00000150: c6e5 0abf 4941 efbe 3530 b9be 6806 d7be
00000160: 5aae d4be 9a80 06bf 9c01 d7be cb42 a6be
00000170: e67a 95be ae68 fcbe beaf c2be ae13 0abf
00000180: fa77 d9be a7e2 28bf 67ac b7be 7eac cbbe
00000190: 295d 92be 1608 ebbe cbdc c2be b7fe d3be
000001a0: 7517 e1be 676d cbbe 7905 f8be 1cee afbe
000001b0: f739 00bf 09d7 afbe 1d93 c3be c43a f3be
000001c0: 20ac aebe edc3 bebe e9c2 bbbe da5a 11bf
000001d0: 247d d3be 37f4 dcbe bf09 93be e0b3 eebe
000001e0: a883 e5be b1f4 bdbe bf89 f3be 5d89 d0be
000001f0: 1864 adbe dca5 e8be 404e 89be 0a53 8fbe

network.8.weight f4 [64, 128]
0.2189579 -0.0778169 0.13147885 -0.030748783 -0.66931903 0.08750299 0.11243002 0.045750566
0.21818967 -0.21830247 0.16567953 0.05647043 0.29600173 -0.07916007 0.01914652 0.06434142
0.03525887 0.048898965 0.0662925 0.14385487 -0.25375375 0.104038715 0.1167853 0.13691828
0.112114854 0.05384371 -0.031048933 -0.5465383 0.08726827 -0.10537881 0.068818524 -0.009705712
-0.31053448 0.018733602 0.031513482 0.2106292 0.043521743 0.01424242 0.000626635 -0.0764387
0.18322973 -0.038768582 0.026338393 -0.05434043 -0.100047655 0.010405379 -0.017187648 0.07340429
0.07205518 -0.27876103 -0.03065745 -0.026706971 0.014709886 -0.15565561 -0.052039806 0.008845108
0.011813506 -0.15720914 0.15559836 0.013374379 0.15564828 0.3616609 0.19714482 0.10577872
0.23729165 0.06172182 0.28224048 0.021829974 -0.48019296 -0.03801648 0.14920554 -0.24437313
0.115532376 -0.16667613 0.092601515 -0.103271976 0.022566093 -0.001281459 0.09182395 -0.027181663
-0.001741 0.026449949 -0.21167411 0.013357906 0.16980167 -0.11750642 -0.02702622 0.19296199
0.04831967 -0.0931721 -0.09764622 -0.15328284 -0.009732442 -0.06221063 -0.14098886 -0.002944913
-0.18850905 0.037176706 0.0020936972 -0.08336867 -0.04363201 -0.21611539 0.15765622 0.27719685
-0.063239254 0.166859 0.13831872 0.121749386 0.15175226 0.2575787 0.09868782 -0.09974856
0.050692342 0.1583368 0.099578224 -0.15498413 0.042001456 -0.06864467 -0.10879932 0.08931881
-0.14880164 0.10111474 0.06428624 -0.18536931 -0.15122508 0.036718886 -0.093352444 0.07554239
0.2130342 0.19631667 0.37624994 0.059365205 0.23985392 -0.11258601 -0.011217898 -0.37786427
-0.015697993 0.01747276 0.30922243 0.06731379 0.12244235 0.1780688 0.12330876 0.13014914
0.10485723 0.11681197 -0.18124 -0.27016115 -0.6643352 0.07712928 0.0015960208 0.11376807
0.3805566 0.0045266435 0.034228485 -0.22144645 -0.1076786 0.061192386 -0.2883441 0.33891547
0.047223743 -0.010894821 0.033889096 -0.13611855 0.048834007 0.2108273 0.03286314 0.079918385
-0.053644784 0.17041764 0.1421137 0.18519779 0.12604512 -0.052600406 0.109697714 0.13585483
0.20001224 0.47539964 0.1108207 0.1698734 -0.3735384 0.18113765 -0.11131192 0.05465045
-0.040164173 0.15619375 0.09109128 0.21962029 0.12453222 -0.27450344 -0.037616078 0.19891886
-0.15616527 0.059697118 -0.33032998 0.20720907 0.15302333 -0.29357076 0.22115391 0.26130217
0.06717619 -0.088660456 -0.2897427 -0.28313404 0.203162 -0.0047351 0.007933211 0.11769008
0.20049691 0.14105162 0.33309636 0.11552903 0.331892 0.015101348 -0.088543095 0.12284686
-0.012395891 -0.022991983 0.19130458 0.21696834 0.03354883 0.12590957 0.08738173 0.04878568
0.18716432 -0.043518387 0.06475064 0.16077994 0.015463698 -0.36829412 -0.20596626 -0.76765835
0.12567219 0.017336639 -0.067413114 0.15191296 -0.30999222 0.07623883 0.03939574 0.06901916
-0.050436664 -0.5486177 0.19767496 -0.079706825 -0.0068441373 0.3197045 0.01705761 0.087425254
0.12646955 -0.041224647 0.06709436 -0.13363095 0.016860083 -0.4280165 0.084730394 0.11605324
00000000: 8036 603e 785e 9fbd 64a2 063e dfe4 fbbc
00000010: 7e58 2bbf c534 b33d b641 e63d f264 3b3d
00000020: 1d6d 5f3e af8a 5fbe e5a7 293e 8a4d 673d
00000030: 8a8d 973e ad1e a2bd 2ad9 9c3c 6fc5 833d
00000040: 9b6b 103d 484a 483d 5dc4 873d b14e 133e
00000050: 03ec 81be 4012 d53d 222d ef3d 4e34 0c3e
00000060: 799c e53d 398b 5c3d 555a febc efe9 0bbf
00000070: b5b9 b23d d8d0 d7bd baf0 8c3d b504 1fbc
00000080: 60fe 9ebe 3677 993c 4814 013d 2eaf 573e
00000090: db43 323d 0a59 693c c344 243a e58b 9cbd
000000a0: 93a0 3b3e cecb 1ebd 9dc3 d73c 1294 5ebd
000000b0: c9e5 ccbd 537b 2a3c 1ccd 8cbc fd54 963d
000000c0: ab91 933d c4b9 8ebe 5525 fbbc 94c8 dabc
000000d0: bc01 713c 2f64 1fbe b127 55bd 12eb 103c
000000e0: 6f8d 413c 6ffb 20be 2d55 1f3e 3620 5b3c
000000f0: 4362 1f3e 9e2b b93e 55e0 493e 83a2 d83d
00000100: 95fc 723e 05d0 7c3d d381 903e c6d4 b23c
00000110: dadb f5be 2bb7 1bbd 56c9 183e f33c 7abe
00000120: 3d9c ec3d 26ad 2abe dda5 bd3d 4280 d3bd
00000130: 87dc b83c a1f6 a7ba 320e bc3d 14ac debc
00000140: 4432 e4ba 90ad d83c 19c1 58be 1edb 5a3c
00000150: 7de0 2d3e 35a7 f0bd 1766 ddbc d497 453e
00000160: d9ea 453d 04d1 bebd befa c7bd 2df6 1cbe
00000170: d274 1fbc 93d0 7ebd 625f 10be 71ff 40bb
00000180: 8408 41be 9a46 183d 6936 093b 31bd aabd
00000190: 7bb7 32bd 5a4d 5dbe a270 213e bfec 8d3e
000001a0: 9583 81bd 16dd 2a3e 6ca3 0d3e be57 f93d
000001b0: f264 1b3e 5be1 833e d71c ca3d f948 ccbd
000001c0: c6a2 4f3d 0b23 223e abef cb3d 29b4 1ebe
000001d0: b809 2c3d 9495 8cbd 2ed2 debd c8ec b63d
000001e0: 755f 18be 3f15 cf3d 81a8 833d 74d1 3dbe
000001f0: bfda 1abe 8b66 163d 912f bfbd f8b5 9a3d
00000200: a325 5a3e 3d07 493e d5a3 c03e ee28 733d
00000210: 449c 753e 7e93 e6bd 46cb 37bc 6d77 c1be
00000220: 1499 80bc 0923 8f3c 6752 9e3e d0db 893d
00000230: 0ec3 fa3d ab57 363e 4e89 fc3d d145 053e
00000240: 63bf d63d 1d3b ef3d fb96 39be 9052 8abe
00000250: df11 2abf f5f5 9d3d 9231 d13a 3cff e83d
00000260: 51d8 c23e 3d54 943b 2b33 0c3d dcc2 62be
00000270: 9986 dcbd dea4 7a3d d6a1 93be 5486 ad3e
00000280: af6d 413d 3180 32bc 4bcf 0a3d a962 0bbe
00000290: 2b06 483d 1de3 573e 809b 063d 40ac a33d
000002a0: a2ba 5bbd f681 2e3e 4186 113e 7da4 3d3e
000002b0: f911 013e 8673 57bd 32a9 e03d 871d 0b3e
000002c0: 02d0 4c3e 9567 f33e f7f5 e23d 4bf3 2d3e
000002d0: 6d40 bfbe 267c 393e 81f7 e3bd 26d9 5f3d
000002e0: 3083 24bd 41f1 1f3e 118e ba3d 24e4 603e
000002f0: c00a ff3d b78b 8cbe 5113 1abd 63b1 4b3e
00000300: cae9 1fbe f784 743d 0321 a9be 9d2e 543e
00000310: 26b2 1c3e e84e 96be 2c76 623e 66c9 853e
00000320: ac93 893d 9d93 b5bd 2859 94be f2f6 90be
00000330: b309 503e e628 9bbb 4cfa 013c 7f07 f13d
00000340: 104f 4d3e d66f 103e 9b8b aa3e 7c9a ec3d
00000350: c0ed a93e a56b 773c 1556 b5bd 2297 fb3d
00000360: 2318 4bbc af59 bcbc 59e5 433e f32c 5e3e
00000370: 7f6a 093d 70ee 003e 31f5 b23d 7ed3 473d
00000380: 01a8 3f3e 5640 32bd fc9b 843d 7fa3 243e
00000390: 735b 7d3c 0c91 bcbe d2e8 52be 4285 44bf
000003a0: 36b0 003e 9105 8e3c e30f 8abd 128f 1b3e
000003b0: 4db7 9ebe 1b23 9c3d 6d5d 213d eb59 8d3d
000003c0: ad96 4ebd 3672 0cbf 4e6b 4a3e 553d a3bd
000003d0: c944 e0bb 4fb0 a33e 67bc 8b3c 030c b33d
000003e0: 3c81 013e 2ddb 28bd c568 893d 8dd6 08be
000003f0: 281e 8a3c fb24 dbbe 2187 ad3d 52ad ed3d

network.8.bias f4 [64]
0.055240586 0.035484638 -0.004156779 -0.011602787 -0.059355248 0.05699239 0.24308266 -0.18902189
-0.06710131 -0.10749475 0.041020777 0.29416937 0.0684197 -0.0446955 0.0014523308 -0.2424503
0.17379712 -0.015722446 -0.06104637 -0.041459333 -0.019616714 0.05525685 0.031726968 -0.0031125238
-0.10633904 0.14756127 -0.044861622 -0.13814299 -0.03250367 0.14867099 0.0066191414 0.042520303
-0.079744756 0.058632012 -0.018947922 -0.05191604 0.0969945 0.3280834 -0.15209508 0.3525597
-0.13466959 -0.04157328 0.121082224 0.16466457 0.31684393 -0.052989095 -0.055040356 0.25109366
0.1006597 -0.07790418 -0.09044005 -0.038716555 0.03620186 0.064016126 0.027794152 0.17428595
0.08642474 0.009952493 -0.11359423 -0.0847396 -0.0108515 0.09702534 -0.01419155 -0.005863483
00000000: f443 623d 5758 113d 9735 88bb 9e19 3ebc
00000010: 7d1e 73bd da70 693d a9ea 783e f48e 41be
00000020: 696c 89bd 3526 dcbd 6705 283d 5e9d 963e
00000030: a11f 8c3d a112 37bd 235c be3a e444 78be
00000040: dff7 313e 5ccc 80bc c20b 7abd 43d1 29bd
00000050: 3bb3 a0bc 0255 623d 23f4 013d 7cfb 4bbb
00000060: 48c8 d9bd 4d1a 173e d2c0 37bd 5b75 0dbe
00000070: 9122 05bd 353d 183e 62e5 d83b c529 2e3d
00000080: 3851 a3bd 1f28 703d ac38 9bbc eaa5 54bd
00000090: 0da5 c63d 8cfa a73e d0be 1bbe b482 b43e
000000a0: d3e6 09be be48 2abd f5f9 f73d d49d 283e
000000b0: 5e39 a23e 180b 59bd ff71 61bd 598f 803e
000000c0: ac26 ce3d 3a8c 9fbd a238 b9bd 4095 1ebd
000000d0: 6748 143d e31a 833d 90b0 e33c 0478 323e
000000e0: 74ff b03d c80f 233c 17a4 e8bd f58b adbd
000000f0: 7dca 31bc 39b5 c63d ad83 68bc 7622 c0bb

network.9.weight f4 [64]
1.1096072 0.9026912 0.9649151 1.0202299 1.4743413 0.91262215 0.7207184 1.4676881
1.2641572 1.5425434 0.91073024 0.6427687 0.72926986 1.0344534 1.1632948 1.529649
0.7369889 1.2577764 1.6106343 1.5360354 1.013785 0.9206577 1.0163372 0.9937195
1.3809776 0.7457002 0.99732417 1.2370868 1.1111491 0.75091475 1.0698845 0.87851995
1.4096601 0.87754345 1.2220447 1.1182871 0.7780271 0.6100533 1.1715155 0.5270346
1.3515397 1.1531427 0.7205382 0.7666593 0.56650835 1.174045 1.3820105 0.52261126
0.7879068 1.2421894 1.1079793 0.95873094 0.672409 1.0144336 1.2978933 0.72375
0.8262158 0.9241374 1.4673736 1.0577586 1.0803304 0.9066035 0.9396277 1.1645554
00000000: 9c07 8e3f c516 673f ad04 773f e596 823f
00000010: 37b7 bc3f 9ba1 693f 0081 383f 34dd bb3f
00000020: e7cf a13f 1072 c53f 9e25 693f 7d8c 243f
00000030: 6eb1 3a3f f868 843f d8e6 943f 8acb c33f
00000040: 4eab 3c3f d1fe a03f 4429 ce3f cf9c c43f
00000050: b5c3 813f 39b0 6b3f 5617 823f 6764 7e3f
00000060: e0c3 b03f 35e6 3e3f a350 7f3f dc58 9e3f
00000070: 223a 8e3f f33b 403f faf1 883f afe6 603f
00000080: be6f b43f b0a6 603f f66b 9c3f 0824 8f3f
00000090: c92c 473f 742c 1c3f 38f4 953f bdeb 063f
000000a0: 41ff ac3f 2e9a 933f 3175 383f c943 443f
000000b0: b106 113f 1b47 963f b8e5 b03f dac9 053f
000000c0: 43b4 493f 1000 9f3f 44d2 8d3f 646f 753f
000000d0: ff22 2c3f f6d8 813f 5e21 a63f ae47 393f
000000e0: e182 533f 4594 6c3f e6d2 bb3f a264 873f
000000f0: 4448 8a3f 2b17 683f 718b 703f 2710 953f
